model.pt (torch, 717647 bytes, 8 tensors)

conv1.weight f4 [14, 1, 5, 5]
00000000: fe5f 383d 920a e23d 7725 bb3d e604 453e
00000010: 3fab 843e d49e 823e 4fbf a53c 5969 683e
00000020: 72cf 693e 3d1a 873e 372b b5bd 58ca bc3c
00000030: 6bba c2bd 7409 1ebe 9741 6e3e b09f 5fbe
00000040: 12bf 8dbe 343c c7bd cd57 80be d29d 5abe
00000050: 80a3 9fbe f3c6 5cbe 4d5c 7dbe c304 efbb
00000060: 58ec e2bd 4cc3 713e f479 30be ba9e 03be
00000070: 567a 25be 55aa 7fbd b615 d33d 7641 9d3d
00000080: fdbc dcbd 827b 88bd 8e16 49be 54bc 47bb
00000090: 3483 8cbd 8371 a53e 3f12 3a3e 16c5 2a3e
000000a0: b59a 3c3e 2589 a93e 752f 023e 3a70 463e
000000b0: 85f7 dd3d 1136 803d 9111 4c3e 722e 053e
000000c0: ce05 8e3e 4a06 783b 08a2 44be 9753 76be
000000d0: b27d 343d ae17 19be 8afc 953c 58f9 843d
000000e0: c0e8 013b f275 f03d 2937 f83d 01e0 c23d
000000f0: 182c 01be e847 a83d 9cb9 b83c 576c 14bc
00000100: 65f7 913d ff18 4b3d a032 ce3b d03f 773e
00000110: e13d 8ebc 2189 f93c 3fd0 843e 6c63 6b3e
00000120: 29be 033e 7c50 533e 49b6 fc3d be54 ef3d
00000130: 3a90 25be 5db1 cbbc e0f1 09bd 268b 593e
00000140: a8b2 e3bd a6bb 13be f2ee 1fbe 579f 023e
00000150: a796 9b3d 6864 34bd 57dd cd3d 9d19 59be
00000160: fde8 16be 8113 863d 1d06 6cbe 2de6 1fbe
00000170: 57b3 983d 82d4 d2bd b2f4 033e 5ad1 2abe
00000180: 3661 28be b216 063d 65a9 4d3e 243a 933e
00000190: 3236 a9bd 976e 493d 794d e13d 1962 a6bd
000001a0: 2ad6 153e d0aa 83bd 4b21 0ebd df0c 7e3c
000001b0: a836 28be 40d5 863d b5ec 8a3d 59a9 87bc
000001c0: 96b7 293e f278 c7bd 1a7c 91bd 65b2 37be
000001d0: eaba 56bd 8f03 2c3e 83b4 7e3e 13dd c03d
000001e0: 90e8 84be 4e41 58be 5cbe 153e 0930 bb3c
000001f0: 1a25 3bbd e7fd d53b 4006 5f3e 58d9 a43c
00000200: 873f 0a3c 1930 91bc e995 d03d 4ed8 f0bd
00000210: 33e7 8bbc 2eca 463e 2aaa 12be a0c9 cfbd
00000220: fccd 733e 7d0b b93d 18ae 39be 4953 b4bd
00000230: b0b9 693e 0e39 d9bd 054e 7cbd 34a2 44bc
00000240: 63b5 33be 42f0 0d3e dfc0 663e 99fa 173d
00000250: 1b7b ccbd bb1e e9bd 6ac0 123e 6eb6 23be
00000260: 58e7 c73d 82b7 3fbe 8867 a43d 97ec edbd
00000270: 926a e63d 4506 18be 7226 50be ce22 ccbc
00000280: 746c ffbd d76d 323c ec79 0c3e 1c6c 7d3d
00000290: f528 e53b edec d6bd e6a4 fdbd bcb6 40bd
000002a0: d4c8 b4bb c8ee 3ebb 64f9 97bd bb27 383e
000002b0: 74ff c1bd 5923 0dbe 186a a8bc b926 59be
000002c0: 246b 603d 50f1 73be 6873 5abe b2b2 5ebe
000002d0: d43e 87be 2258 3dbe fa70 36be c95a 343d
000002e0: d3e7 383e c162 6a3e 1045 00bd dc3e 0a3e
000002f0: dbba 863e 94b9 7e3e c341 b33e 185d 23bc
00000300: 03d8 e23d 5eba 3e3e 59d3 303e 9665 523e
00000310: c93d 07be be7e eebd 6b10 d0bd efa4 273e
00000320: eb19 ec3d 706c 193c ccba b0bb b50f 9f3d
00000330: 5c96 4a3e 1947 4cbe 0706 f2bd 2c80 553d
00000340: 2ea4 563e 8a6c 27be d2fa febd 39c7 8bbd
00000350: 97d2 8b3d 882f 993e 5815 d0bd 82a5 47be
00000360: 18cb 473e 158f 183e 6ad6 d6bd 3559 53bd
00000370: f6d9 2c3d 1649 acbd 5d3c 463e d8d3 eabc
00000380: d515 c63d d7bd 86bd c6fc b0bd 1357 bdbd
00000390: a01d 49bd 236a 2b3d 18ab 45be 45a7 b73d
000003a0: 120c 96bd eb14 17be b32a 84bd 82d6 39be
000003b0: f880 c03d 1a7e 48be c651 0e3d 0cfa 10be
000003c0: 587e 933d f7a9 06be 6631 22be 5669 bebd
000003d0: 62df 5c3e 8793 a6bb 6206 0dbe c825 223c
000003e0: b8a7 783e b38a 5d3e 8846 ff3c cc29 9b3d
000003f0: c033 323d 2a79 5c3d 067d 373d d182 25be
0.04501342 0.110371724 0.09138005 0.1924015 0.259119 0.255118 0.020232825 0.22696437
0.2283304 0.26387206 -0.08846133 0.023045704 -0.09508213 -0.15433294 0.23267208 -0.2183826
-0.27684838 -0.0972828 -0.25066987 -0.21349266 -0.31179428 -0.21560268 -0.24742241 -0.007294269
-0.11080235 0.23609656 -0.17234021 -0.12853518 -0.16159949 -0.0624183 0.103068754 0.07678501
-0.10778234 -0.06664182 -0.1963751 -0.0030477243 -0.068609625 0.32313165 0.18171023 0.16676745
0.18418391 0.33112445 0.12713416 0.19378749 0.10838226 0.06260312 0.19928576 0.13005999
0.27738804 0.0037845545 -0.19202435 -0.24055324 0.044065185 -0.1495044 0.018308897 0.06492871
0.0019822568 0.11741246 0.12119896 0.095153816 -0.12614477 0.0821684 0.022549443 -0.009059033
0.07127265 0.049584385 0.006292656 0.24145436 -0.01736349 0.030460896 0.2594013 0.22987145
0.12865509 0.20636171 0.12339456 0.11686085 -0.161683 -0.024864847 -0.033677936 0.21244487
-0.1111806 -0.14427051 -0.15618494 0.12756096 0.07597094 -0.044041067 0.10051983 -0.21201177
-0.14737315 0.06546689 -0.23049207 -0.15615149 0.07456081 -0.10294439 0.12886313 -0.16681424
-0.16443333 0.032736488 0.2008415 0.28755295 -0.0826229 0.049177732 0.11001105 -0.081241794
0.14632478 -0.06429064 -0.03469972 0.015505998 -0.164271 0.06583643 0.067834295 -0.016560243
0.16573939 -0.09739865 -0.071037486 -0.17939146 -0.05242435 0.16798232 0.24873547 0.094171666
-0.2595868 -0.21118662 0.14623398 0.022850053 -0.04568968 0.0065305117 0.21779728 0.020123169
0.008437998 -0.01772313 0.10184843 -0.11760007 -0.017078018 0.19413063 -0.14322725 -0.10145879
0.23809046 0.09035394 -0.18132818 -0.08804948 0.2282474 -0.106065854 -0.061597843 -0.012001563
-0.17549662 0.13861182 0.22534512 0.037104223 -0.09984418 -0.113828145 0.14331213 -0.1598756
0.09760922 -0.18722346 0.080275595 -0.116173916 0.112507954 -0.14846142 -0.20327166 -0.02491894
-0.12471858 0.010890446 0.13718385 0.06187068 0.006993408 -0.10494409 -0.123849675 -0.04704927
-0.0055171046 -0.0029134024 -0.07420614 0.17983906 -0.09472552 -0.13783015 -0.020558402 -0.21206178
0.054789677 -0.23822522 -0.21333086 -0.21747854 -0.26415122 -0.18490651 -0.17816535 0.044031892
0.18057184 0.22889234 -0.031315863 0.13500541 0.26314434 0.2487548 0.3501111 -0.009970926
0.11076357 0.18625781 0.17268123 0.20546564 -0.13207163 -0.11645268 -0.101593815 0.16371511
0.11528381 0.009364232 -0.0053933617 0.07766668 0.1978392 -0.19948997 -0.11817556 0.052124187
0.20961067 -0.16349998 -0.12450184 -0.06825108 0.06827276 0.29919076 -0.10160321 -0.1949673
0.19511068 0.14898331 -0.10490115 -0.051598746 0.04220005 -0.084123775 0.19358964 -0.028665468
0.09672133 -0.06579178 -0.08641963 -0.09245124 -0.04910052 0.041849267 -0.19303548 0.08967451
-0.07326521 -0.14754073 -0.06453457 -0.18148234 0.09399599 -0.19579354 0.034745954 -0.14157885
0.072018325 -0.13150774 -0.15839157 -0.09297435 0.21569589 -0.0050835046 -0.13771966 0.009896703
0.2428273 0.21634941 0.031161562 0.075763315 0.043506384 0.05382649 0.044796966 -0.16163184

conv1.bias f4 [14]
00000000: 30e0 80bd a2cf d93d ad80 e4bd d60f b2bd
00000010: 24b1 b4bc 3a8f 003e 8d21 68bb 0588 903e
00000020: 2e1b 3abe 3ad6 a5bd d763 2a3c f9fb 673e
00000030: 5e56 103e a8fd 3cbe
-0.0629276 0.10635306 -0.111573555 -0.08694427 -0.022057123 0.12554637 -0.0035420388 0.28228775
-0.1817443 -0.08097501 0.01039978 0.22654714 0.14095446 -0.18456137

conv2.weight f4 [7, 14, 5, 5]
00000000: 5519 a5bd a0c2 8fbb 01a4 cabc daf3 5dbd
00000010: 99fd e0bc 8ce3 443d 5744 a53d b002 ac3d
00000020: 60fa 7a3c a909 8b3d 0b59 163e 7399 e53d
00000030: 5f95 7e3d 1ef1 303e 57dd a73d 2850 143e
00000040: 4ba9 e23d cd67 293e 0a83 353e e421 2a3e
00000050: 900c a03d 1a4d 913d 8625 833d 9fce 343d
00000060: 3049 1d3d 8701 133d 775e 7b3c e659 893d
00000070: b44c 9d3d d8ba 7f3d d262 a33d d5ea ee3c
00000080: 728d 31bb a48d af3c 1299 513d 0dc1 283c
00000090: 692a 943a 947c 83bd 6286 c4bc 7ece cbbd
000000a0: acc4 82bd de32 10be 39d2 06be 01ef 12be
000000b0: cf5f 2cbe 7358 d3bd fa5c 2ebe 50d4 36be
000000c0: baa8 17be e750 0bbe 44f5 933c 71f9 803d
000000d0: 0781 0bbc 7131 5f3d 70d5 0a3d 1f82 4f3d
000000e0: 28ed 0ebc 6780 72bd e0f0 2dbd b7ab 2d3d
000000f0: eaf6 0c3c 4e33 aabd 57ea bcbd 9b3b debd
00000100: fc03 1ebb 54cc e2bc 57dc f3bc fb1d 4ebd
00000110: fb28 94bd e6af 85bd bf2b 03bd d97d cfbd
00000120: 0d45 e9bd d6c8 96bd 076c 5dbd 90cf 123d
00000130: 720e 59bd c2f8 833c 76a7 9f3c 0a3b 91bd
00000140: cd56 90bd d0ab 6fbd 5e17 8fbd 5db7 6ebc
00000150: d193 2ebd 2764 583c f6a5 b23c f5a2 413c
00000160: c635 1abc eff9 60bd c607 1abc b69f 0abd
00000170: 116d a43c 1873 263d 750e 963b 7bb0 19bb
00000180: ef82 0abd bc9b 7f3d 2b78 353d a3bc 933c
00000190: e6f8 ba3c 804d 123d b24f 613b db3e d5ba
000001a0: bf5a 0b3b 3a05 013b 13e9 343d e4de f33c
000001b0: 6a8f 5fbc 9da7 5e3d 1d4b 1cbd cd48 1dbd
000001c0: e77b 8abc 7462 2e3c 3ece 3b3d 69db 063d
000001d0: 7ac7 123c ff60 e6bb 9896 68bd 832a 43bd
000001e0: f57c 0c3d 0e2e 773c f19d acbc b1ba e63c
000001f0: 8da6 f1bc 1fcf ffbb 1fe3 37bd fddd 16bd
00000200: d970 763d 8014 f93c cb77 663c 259b 983c
00000210: 12c3 03bd 87ac 82bd 890d 8cbd 28ba 11bd
00000220: 0c66 86bd 00fc 18bd 105f b8bc 93df c0bd
00000230: 5cfd 9f3c dc91 b03c 944a 03bc a551 69bd
00000240: f072 6fbc 75da 683c 09ac c93c cb7d 0c3d
00000250: 4252 5cbd 3080 0abd d0c1 dfbc 6e16 1e3c
00000260: 1b2b c93c 66b5 30bd 6c25 be3b 4e91 56bc
00000270: 5341 dcbb 1aac 4cbd 8dcb 33bd 7918 95bc
00000280: d816 2a3d 92ce 0b3d b314 1abd f882 e7bc
00000290: 4fe7 3ebd 3baa 45bd da40 22bd 7e96 cabc
000002a0: 97f9 c0bc 3b17 3f3d 7fd2 d43b 71ef 17bd
000002b0: 6cdb fabc 39d9 89bb 77e0 a8ba de34 343d
000002c0: 5df3 c53d 0dfa 9d3d 4fb4 0d3e 9beb e13d
000002d0: ad5b 0a3e f898 ad3d cbf4 083e 1cd4 f33d
000002e0: 7db1 303e cc6a 823c 5493 263d 69db 9e3c
000002f0: 0b3f 833c 53bb 503a d6c4 d3bd c297 d6bd
00000300: f8f1 d3bd 3ccc d5bd fc34 9fbd 4827 c6bd
00000310: 1a91 c8bd 1ff0 debd efe9 f3bd 4651 c1bd
00000320: 55d7 71bc 31e6 723c 460d 43bc 405c b83b
00000330: 7693 9cbd c7e8 27bd 4e4d 67bd 43f3 703c
00000340: 5740 7abd 0816 4cbd 1259 0b3d 8a70 0d3d
00000350: b4f0 c23c 447a efbc da58 763b bdb5 f8bc
00000360: b3b8 b0bc f831 1b3d 864f 82bc 7a21 a2bc
00000370: e3ad 42bc ee72 a73c 9505 60bc 2984 dcbc
00000380: abf9 6fbb 7b48 4c3d 7d1a 033d 2e8a 683b
00000390: 8ba5 993d 0fb7 563a 5e30 b1bc 34c9 043d
000003a0: 76e6 48bc 5964 7abd d8ac d5bc a48d 17bd
000003b0: 0bf1 24bd 8b23 87bc 4253 e7bc 0ab6 01bd
000003c0: b4b1 44bd 283c 853c caa2 51bd 7d1d aa3c
000003d0: 7627 e43c 71e9 5f3d feea 3b3d dad2 ddbc
000003e0: 9988 2a3d aa82 3c39 fa91 f5bc 77cc d23c
000003f0: b445 05bd eb10 f7bc 587d 5d3d 7f33 8b3d
-0.08061472 -0.004387215 -0.024736406 -0.054187633 -0.027464675 0.048068568 0.080696754 0.0839895
0.015318483 0.06788952 0.14682405 0.11210909 0.06215417 0.17279479 0.08196514 0.14483702
0.11067446 0.16543503 0.17725769 0.16614491 0.07814896 0.07094784 0.064036414 0.04414236
0.038399875 0.03589013 0.015342346 0.067066 0.076806456 0.062434047 0.07977833 0.029164711
-0.0027092365 0.021429844 0.05117137 0.010299933 0.0011304143 -0.06420246 -0.02398986 -0.09951495
-0.063851684 -0.14081904 -0.13166131 -0.14348985 -0.16833423 -0.10319605 -0.17027655 -0.17854428
-0.14810458 -0.1360508 0.018061288 0.06297577 -0.008514649 0.05449051 0.033894956 0.050661203
-0.008723535 -0.059204485 -0.042466044 0.04240009 0.008603791 -0.08310567 -0.09224384 -0.108512126
-0.0024111262 -0.027685322 -0.029768152 -0.05032156 -0.07234379 -0.065276906 -0.03202414 -0.101314254
-0.113901235 -0.07362525 -0.0540581 0.03584248 -0.05299229 0.016109828 0.019489031 -0.07091339
-0.07047806 -0.058513463 -0.06986879 -0.014570084 -0.042621437 0.013207472 0.021807652 0.011818637
-0.009412235 -0.054925855 -0.009401267 -0.03384372 0.020071538 0.040637106 0.00457936 -0.0023451138
-0.033816274 0.06240438 0.044304054 0.018034285 0.022823762 0.03571844 0.0034379777 -0.0016269343
0.0021263806 0.0019686953 0.04416759 0.029769368 -0.013645032 0.054359067 -0.03815757 -0.038399506
-0.016904784 0.01064359 0.045850985 0.03292409 0.008958692 -0.007030606 -0.056784242 -0.047647964
0.034298856 0.015086664 -0.021071406 0.028165193 -0.029498363 -0.007806673 -0.044894334 -0.0368328
0.060166214 0.030405283 0.014066647 0.018628666 -0.032168455 -0.06380563 -0.06838519 -0.035577923
-0.06562433 -0.0373497 -0.022506267 -0.094176434 0.01952999 0.021553926 -0.008013386 -0.056962628
-0.014614806 0.01421224 0.024618166 0.034299653 -0.053789385 -0.033813655 -0.027314097 0.009648902
0.024556687 -0.043141745 0.005802801 -0.013096167 -0.0067216544 -0.049968816 -0.043895293 -0.018200146
0.04152569 0.034132548 -0.037617397 -0.028260693 -0.04660731 -0.048258048 -0.03961263 -0.024729963
-0.023556514 0.046653014 0.0064948197 -0.037093583 -0.030622207 -0.004206803 -0.0012884279 0.04399573
0.096655585 0.07713709 0.13838314 0.11031266 0.13511534 0.08476442 0.13374631 0.11905691
0.17255206 0.015920065 0.040667847 0.019391732 0.016021272 0.0007962484 -0.10340278 -0.10478164
-0.10348886 -0.10439345 -0.07773778 -0.09675461 -0.09793301 -0.10885643 -0.11909854 -0.0943933
-0.014760812 0.01482539 -0.01190502 0.0056262314 -0.076453134 -0.04099348 -0.056470208 0.014706436
-0.061096516 -0.049825698 0.03402049 0.034531154 0.023796417 -0.029233105 0.003758958 -0.030360097
-0.021572446 0.03788945 -0.01590706 -0.019791353 -0.011882278 0.020440545 -0.013673206 -0.026918488
-0.003661732 0.04987381 0.032007683 0.0035482752 0.07502278 0.000819073 -0.021629509 0.032418445
-0.012261977 -0.061130855 -0.026083395 -0.037000313 -0.04026894 -0.01649644 -0.028237943 -0.031667747
-0.048021033 0.016264036 -0.05118064 0.020766014 0.027850848 0.054665986 0.045878403 -0.02707808
0.041634176 0.00017977753 -0.029976834 0.025732262 -0.032537177 -0.030159434 0.054074615 0.067969315

conv2.bias f4 [7]
00000000: 73f0 763d c593 453c 21f1 c63c 5b51 7e3d
00000010: e122 953d 3166 c9bc 07a7 583d
0.060287904 0.012059157 0.024284901 0.062089305 0.07282043 -0.024584861 0.052893665

dense1.weight f4 [32, 5488]
00000000: 5c28 333c 5b5c 94bb 3092 b1bb b4bd e2ba
00000010: a40d 5cbc 4798 303c e72a 013c 9031 41bb
00000020: 13ea 783b 7229 c03b 3ba0 663c 113a 263c
00000030: 689c 39bb 29e4 c1bb 5abb eabb d61b c9bb
00000040: a863 6c3c da5d 423c 5e1e 803c 032b a5bb
00000050: bc3f 6a3c c839 c23a ff26 7c3a 4f65 3d3b
00000060: d6b6 0a3b 376d 1a3c 01c0 0bbc 1e72 7db9
00000070: 720b 213c 7ab5 3abc 435c 21ba 5041 163c
00000080: f014 213b 9178 fb3a 26dc 1f3c d35e d2ba
00000090: a18c 4fbc 6e19 92bb ddea 17bc 19b1 a83b
000000a0: e720 443c 7e1f 313c fa1f 16bc 6913 38bc
000000b0: 8e05 803c d120 1cbc 8644 7ab9 fa69 c1ba
000000c0: bcd0 aeba 152c cc3b 5d6f febb 26e6 2dba
000000d0: 7e86 b93b 492c 003a 58e8 e23b 8142 74bb
000000e0: 5f24 1e3b 6d23 5d3b 58ea f83b e7c2 54bb
000000f0: 8f3f 4dbc 1cf9 8b3b be43 853a e9a7 d33a
00000100: e53f c6bb 1dcb 563c 7164 92bb 3f3e 3cbc
00000110: ee8a f73b 5ad8 0d3c b4af 993b 2cdd 92bb
00000120: bc6b 113b 6d7c 343c 7abe 7139 896b 25bb
00000130: 55ad e73a 9c70 473c b485 0cbc bbe6 a4bb
00000140: 663d 323c cf04 d83b 7889 2dbc 9d0f a03b
00000150: 5334 0ebc 504c b3bb c8fc 51bc 6bd2 b9ba
00000160: 168a 3ebc fe8d 16bb 5fe5 3f3c 3f56 58bb
00000170: ef84 06bc ee0a d83b 06dc d53b e27f b53b
00000180: e489 323c 6df1 813b 275d 1bbb 2d19 cabb
00000190: 0e6c 30b9 ba75 9a3b a5fb 373c e77c 273c
000001a0: 8bc7 bdbb dad4 1fbc a08b 18bc 9b46 053c
000001b0: 996c 513c 7329 05bc f7e6 39bc bcbc 18bc
000001c0: 6127 9c3a 1bf4 24bc 5055 a6bb 2d12 66bb
000001d0: a33c 903a e0be f03b a6bf f93b 607d 193c
000001e0: c970 153c 45f4 52bc 3783 be3b 08de 8abb
000001f0: 74f7 233b 81d0 2cba e4b0 ffbb 13c1 8e3b
00000200: d2d1 533c ae84 1f3c 0ddd 1c3c a311 a53b
00000210: 4f5c 14bc fb1f cdbb b617 27bc d410 023b
00000220: 5639 04bb f68f 263c 7f53 1fbc 342e 03bc
00000230: 19da 89bb 9d69 0b3c b3e6 91ba 04a9 4fbc
00000240: e82d 113b 8752 6e3b abe1 2d3b 56c0 153c
00000250: 39aa aebb 514c 113b c62a 013c 6a9a 17bc
00000260: 0830 803b 47c0 903b 9911 5ebc c623 6037
00000270: a94a fc3a 65f7 263c 7838 e0bb 83ae 3dbb
00000280: 5de7 eabb 2e9b 55bc ad96 963b 08ff 323a
00000290: 56fd 7aba 2db5 a8bb dad5 b6bb d045 da3b
000002a0: 7e7a 3a3c 26ef 323c dd75 4f3c 039b 88ba
000002b0: c877 093c f0e1 a73b 77c7 693b cc99 9cbb
000002c0: 06e4 7e3c c040 28bc fc35 973b e588 91bc
000002d0: 90ae c8bb 46ea a0bb f66f e73a 4aaf 99bc
000002e0: 5911 0139 6e0b 38bc 51a7 98bb caf7 ae3b
000002f0: 391f b6ba 5408 1f3c 7cc9 dcb9 d06e 573c
00000300: b550 743b 03fb 08bc 809c dfbb b53c 5cbc
00000310: 1521 033c 8b56 063c 11dd 76b9 b856 593c
00000320: e045 123b ad0d 8b3b aa9c 80bb 86f5 16bc
00000330: 0601 cf3b e468 9cbc 50e8 fcbc a11e a7bc
00000340: b495 38bc 1784 c6ba 2951 1abc 006d 6ebc
00000350: 4e7d ffbb 3917 963b 61a6 a2bc 966a 013c
00000360: 50fa 073b 8610 843c 2006 26bc a6d0 853a
00000370: d1ea ae3b f09e 25bb bd75 b8bb 5e39 403c
00000380: b82b 1e3c e2f5 8d3b 3e3c 0e3c a3ed 51bc
00000390: 517a 9abc 8e94 1e3c 20ff 183c 8de2 9b3c
000003a0: 4b4e 183c 24bb 4f3a 15f0 9c3c 7484 203c
000003b0: 39d8 223c 4a8f cd3c 16ba 043d dd9e a73c
000003c0: 42d5 06bb 06f1 66bb 1135 cd3b 5f45 8c3c
000003d0: 4ff8 783b f385 c3bb 433f b83a 8d6a 8f3c
000003e0: 10df 6b3c b641 f3ba 39db 513b 4c88 073c
000003f0: 626c e2bb fd97 fa3a 4f38 0cbc 926d b83b
0.010934915 -0.004527611 -0.0054190382 -0.0017298968 -0.013430987 0.010778493 0.007883764 -0.0029479004
0.0037981316 0.0058643157 0.014076288 0.01014568 -0.0028321985 -0.0059170914 -0.0071634473 -0.0061373515
0.014428057 0.011863196 0.01563948 -0.005040528 0.014297422 0.0014818246 0.0009618848 0.0028899496
0.0021166108 0.009425453 -0.008529664 -0.00024170472 0.009829389 -0.011395806 -0.00061554107 0.009170845
0.002457913 0.0019185712 0.009757077 -0.0016049988 -0.012667806 -0.004458598 -0.009272304 0.005148065
0.011970735 0.010810731 -0.009162897 -0.0112350965 0.015627649 -0.009529308 -0.00023867385 -0.0014756315
-0.0013337354 0.006230841 -0.0077647404 -0.0006633721 0.0056617847 0.00048894115 0.00692467 -0.0037271085
0.0024130566 0.003374304 0.0075962953 -0.0032464804 -0.012527361 0.0042716395 0.0010167283 0.0016148064
-0.0060500973 0.013109949 -0.00446754 -0.01148945 0.0075544035 0.008657539 0.004690135 -0.004481932
0.0022189459 0.011015994 0.00023054509 -0.0025241098 0.0017675558 0.012172844 -0.008576799 -0.005032388
0.010878896 0.00659237 -0.010591857 0.0048846737 -0.008679467 -0.0054717436 -0.012816615 -0.0014177089
-0.011629602 -0.0022972818 0.011712401 -0.003301039 -0.008210405 0.0065931 0.006526473 0.0055389265
0.0108971335 0.003965548 -0.0023706646 -0.006167552 -0.00016824921 0.004713741 0.01122943 0.01022265
-0.0057916096 -0.009755338 -0.009310633 0.008134509 0.012782239 -0.008127558 -0.01134657 -0.0093223415
0.0011913591 -0.010067965 -0.005076088 -0.0035106048 0.0011004399 0.007346973 0.007621723 0.009368271
0.009121128 -0.012875621 0.005813982 -0.004237894 0.002501932 -0.0006592349 -0.0078030694 0.0043565123
0.012928443 0.009736223 0.009574187 0.005037503 -0.009055211 -0.006259916 -0.010198524 0.0019846456
-0.0020175776 0.010166159 -0.009724497 -0.008006621 -0.0042069075 0.008509067 -0.0011131376 -0.012674574
0.0022152606 0.0036365108 0.0026532214 0.009140095 -0.0053303507 0.0022170732 0.007883733 -0.009253124
0.003911976 0.0044174525 -0.013554 1.335977e-05 0.0019248325 0.010190819 -0.006842669 -0.0028943128
-0.007168694 -0.013037486 0.0045955987 0.0006828164 -0.0009574493 -0.005148551 -0.0055796923 0.0066611543
0.0113817435 0.010921275 0.012662378 -0.0010422174 0.0083903745 0.0051233694 0.0035671869 -0.004779076
0.015557295 -0.010269344 0.0046145897 -0.017765472 -0.006124325 -0.00491074 0.0017657268 -0.018760342
0.00012308861 -0.011233194 -0.0046586175 0.0053395974 -0.0013894803 0.009706575 -0.00042111787 0.013148978
0.003727955 -0.008360627 -0.006824076 -0.013442208 0.008003493 0.008199344 -0.00023542742 0.013265304
0.002231948 0.0042435736 -0.003924926 -0.009213811 0.0063172607 -0.019092984 -0.030872494 -0.020400347
-0.011266161 -0.0015145567 -0.009418764 -0.014552355 -0.00779692 0.004580405 -0.019854726 0.007898947
0.0020748563 0.01612116 -0.010133296 0.0010209277 0.005338051 -0.0025271736 -0.00562927 0.011732427
0.009653978 0.00433229 0.008681355 -0.012813005 -0.018857153 0.009678973 0.00933817 0.019028926
0.00929601 0.00079243095 0.019157449 0.009797204 0.009939247 0.02509274 0.032404028 0.020461494
-0.002057389 -0.0035238876 0.0062624295 0.017122922 0.00379898 -0.0059668957 0.0014056939 0.017506862
0.014396444 -0.0018559012 0.0032021536 0.008272242 -0.006909893 0.0019118782 -0.008558347 0.005628296

dense1.bias f4 [32]
00000000: 85ce d73b 7a9d 6a3c 1932 85bb 468e 553b
00000010: fc5c 763b 9722 5cbb dad2 953c f478 38bc
00000020: 4a3d b3bc 081c 903c c473 05bc 2c29 9dba
00000030: 204b a338 dd97 f838 0366 f83b 04e5 6639
00000040: b8b9 203c 3939 4f3c 6d44 273b 9d90 85bb
00000050: d646 033c ff1b 1e3c f072 7cbb 3d4e 70bb
00000060: 348c 59bc 427d 81bc a866 46bb 9c5c 9f3c
00000070: b948 873c a6d6 e03b 1210 8c3c f915 6dba
0.0065858983 0.014319772 -0.00406481 0.0032586022 0.0037592044 -0.0033589953 0.018289018 -0.011259306
-0.02187981 0.017591491 -0.008145276 -0.001199042 7.786439e-05 0.00011853848 0.00758052 0.00022019824
0.009809904 0.01264792 0.0025522963 -0.004076077 0.008012494 0.0096502295 -0.0038520657 -0.0036667727
-0.013278056 -0.015806798 -0.003027359 0.01945334 0.016514169 0.0068615256 0.017097507 -0.00090441067

dense2.weight f4 [10, 32]
00000000: 07bd e2bd 25f9 003e 87e5 1a3d bc44 293e
00000010: 297e 373e e4f6 a73d 52b4 20bd 0e32 373d
00000020: 2512 13be 7590 20be 5f72 29be 3df4 44bd
00000030: f0f3 3bbe 6326 6cbe 365d aabd 5419 603e
00000040: 8c42 4ebe 0558 12be 59a2 81bd 8909 26bd
00000050: 0f5a 42be 4aa7 dc3b b3ac 513e 6afc d33c
00000060: ccef 0f3e b1b4 49be 34b6 06be 35ec 64be
00000070: eaeb 63be 26ae e4bd 2c27 6d3e 1f31 153e
00000080: af09 00bb 5f8e af3d ada4 53bd d37c 07be
00000090: 0249 9b3d b221 443d d302 ce3d 9618 903e
000000a0: 0cd2 ecbd a478 903e b224 b13d f729 933e
000000b0: 4d68 5ebe 7213 073e 3219 243e 3f65 89bc
000000c0: 9070 1dbe 1132 15be 7760 043e 0195 823d
000000d0: 46fe 163e ed60 80be 92f4 42be 8242 743e
000000e0: 0e30 21be 444a f4bd 6e22 9dbd 0ad9 9f3d
000000f0: 75bb ae3d b86e a1bd 580c e1bd 1fff 54be
00000100: 9c9f 93bd 1591 29be 3282 cfbc 7532 35be
00000110: a3ba 0e3e 2670 d23d d52d b4bd c65b f4ba
00000120: fefb ec3d bde2 46be 1277 013c 92d1 a9bd
00000130: 9f05 1abe 3396 463e 1837 363e df0e 1a3e
00000140: 4128 2a3e 6311 cbbd 0558 41be 78da 883e
00000150: 5e22 373e 1d1a 2cbe f62f c43d eadc be3d
00000160: 705b eb3d 6c31 3ebe 8b12 ccbc 0909 71be
00000170: 19f4 053e ef31 323e 32d0 a33c df13 b2bd
00000180: 6c54 babd 6055 2e3e 2269 3b3e 6c37 a7bd
00000190: 8f22 2bbd 6045 073d 83fd 67be 100a b3bd
000001a0: d099 0c3e 0ccd b3bd 1f58 75bd 0d4c 2fbe
000001b0: 67f8 8ebd 73d9 353d 8c43 393e 7eba a1bc
000001c0: a472 8fbd df06 803d 6f2b 8e3e 7287 103d
000001d0: 5f46 3d3e 31ea 6cbb 24e0 05be cd83 02be
000001e0: 2d4a 173e cbbb 153e c352 59be 4135 a33d
000001f0: 1740 ff3d ac66 0cbe c5fc 24be 1217 1bbe
00000200: 3e6c 0abd 1e8c 08be 6604 79be 64e7 99bd
00000210: 3a73 84be a4c8 09be f087 15be 8e90 b4bc
00000220: 564b 09be ea62 d2bc f925 0f3e 36db 7f3e
00000230: a505 053e 9bfa 32be d898 3b3e 0cc3 853d
00000240: 6568 213e 784f 12be 1669 073c b62d 87bd
00000250: 201d 26be 0bde 343e 147a 9d3d 7eb3 393e
00000260: 33d8 8cbe 55ae 013e a30b 4d3e 372d 813d
00000270: a0d1 46be 1077 373e 9feb 1c3e 98a3 aa3d
00000280: da3b 533c 718d 393e 28f9 513e 1146 4d3d
00000290: dccf 063e 8299 afbd 0e04 1e3e 9ff7 4d3d
000002a0: 8b3f febc 64e5 c3bd 74b4 86be cb82 4f3e
000002b0: a1cc d53d 237f adbd a28d 1cbe 58c4 77be
000002c0: ce1d 343e ebc6 f4bc e998 9d3e 7769 d73c
000002d0: 6df6 dabd ac5b 703e b15e b0bd 28dd dfbd
000002e0: 2ae7 023e beb6 053e 874e ecbd bcce 83be
000002f0: f3a3 d6bd 092e 40bd cb99 823d 8bdc fcbd
00000300: 8b34 4dbd 835c 223e bf23 65be c92a 093e
00000310: b4e5 1d3e 7bca 983d f5ad 473e 8374 09be
00000320: 2b38 523d 5092 49bd 0ac1 4fbe 80ed 31be
00000330: 9582 18be 144d da3c 87ab 1bbd 692b bbbd
00000340: 0cb7 98bd 66e2 54be 14b6 c13c 7451 a23c
00000350: 4b9f 59be 98f3 8e3e 1170 3a3e 8928 763e
00000360: 812a 11be 69fe 41be f820 5b3e 392d 14be
00000370: 7a83 97be c878 523e 5c09 00bd dfff 1ebe
00000380: 6c01 ae3e eb9a 34be 4463 7abe 4925 053e
00000390: 0ec6 55be 349c 193e 8e43 3ebe 77b1 03be
000003a0: b1e0 1bbe 301d 953d 4f62 9f3d b42e f83b
000003b0: ee7a dfbd 6a1b 2e3e f037 393b 4221 d3bd
000003c0: fa4f b8bd 8556 5d3e f9b7 0abe 7b45 343c
000003d0: 9916 2c3e 10c1 603d 5e8b 47be b055 6abd
000003e0: e7d2 ea3d 9d0c 8d3d c076 ad3d 0c3f db3d
000003f0: 5a80 f33d fc63 46be f340 5b3e 82b1 c63d
-0.1107121 0.12595041 0.03781655 0.16530126 0.1791922 0.082013875 -0.039234467 0.04472547
-0.1436239 -0.15680106 -0.16547535 -0.048084486 -0.18354774 -0.23061518 -0.0831856 0.21884662
-0.20142573 -0.1429139 -0.063297935 -0.040536437 -0.18979667 0.0067338096 0.20476036 0.025877196
0.14056319 -0.19697835 -0.13155442 -0.22355731 -0.22257963 -0.11166029 0.23159474 0.1456952
-0.0019537022 0.08572077 -0.05167072 -0.1323121 0.075822845 0.047883697 0.100591324 0.28143758
-0.11563501 0.28217041 0.08649577 0.28742954 -0.21719475 0.13191012 0.16025236 -0.01677191
-0.1537497 -0.1456988 0.12927423 0.063760765 0.14745435 -0.25073949 -0.19038609 0.23853496
-0.15740988 -0.119282275 -0.076725826 0.07805069 0.08531848 -0.07882446 -0.109886825 -0.20800446
-0.072081774 -0.1655925 -0.025330637 -0.17695029 0.13938384 0.10275297 -0.08797804 -0.0018643073
0.11571501 -0.19422431 0.007901924 -0.082919255 -0.15041207 0.19393234 0.17794454 0.15044735
0.16616918 -0.09915426 -0.18881233 0.26729178 0.17884204 -0.16806836 0.0957946 0.0931948
0.1149205 -0.1857354 -0.024911186 -0.23538603 0.13081397 0.1740186 0.019996736 -0.08695196
-0.090981334 0.17024755 0.18301824 -0.08164868 -0.041781005 0.033025146 -0.22655301 -0.08742154
0.1373055 -0.08779344 -0.059898492 -0.17118855 -0.06980973 0.04439683 0.18092173 -0.019742247
-0.07004288 0.062513106 0.27767512 0.03528542 0.18483876 -0.003615033 -0.13073784 -0.1274559
0.1477439 0.14622419 -0.21222977 0.07969142 0.12463396 -0.13711041 -0.16112049 -0.1514552
-0.033794634 -0.133347 -0.24318084 -0.075148374 -0.2586916 -0.13455445 -0.14602637 -0.022041585
-0.13407645 -0.025681932 0.13979329 0.24985966 0.12990434 -0.17478411 0.18320024 0.06531343
0.1576248 -0.14288127 0.0082648005 -0.066005155 -0.16222048 0.17662828 0.076893 0.18134877
-0.27508697 0.12664159 0.2002397 0.06307452 -0.19415903 0.17916512 0.15324257 0.08331984
0.012892688 0.18120362 0.20505202 0.05011565 0.1316523 -0.08574201 0.15431234 0.050284978
-0.031036159 -0.09565237 -0.2630955 0.20264737 0.104394205 -0.08471515 -0.15288404 -0.24195993
0.17589495 -0.029880008 0.30780724 0.026295407 -0.10691533 0.2347247 -0.08611811 -0.10930854
0.12783495 0.13057992 -0.115384154 -0.25743663 -0.104804896 -0.046918903 0.0637699 -0.12346753
-0.050098937 0.15855603 -0.22376917 0.13395227 0.15419656 0.07460495 0.19499953 -0.13423352
0.051323097 -0.0492118 -0.20288482 -0.17375755 -0.14893563 0.026648082 -0.038005378 -0.09139139
-0.074567884 -0.20789489 0.023646392 0.01981423 -0.21252172 0.27920222 0.18206812 0.240389
-0.1417637 -0.18944706 0.21399295 -0.14470376 -0.29592496 0.20553887 -0.031258926 -0.15527295
0.3398546 -0.17637222 -0.2445193 0.13002504 -0.20876333 0.15000993 -0.18580458 -0.12860666
-0.15222432 0.07280958 0.07782423 0.007573927 -0.10912119 0.17002645 0.00282621 -0.10309078
-0.08999629 0.21615036 -0.13546742 0.011002894 0.16805495 0.05487162 -0.19486758 -0.057210624
0.11466008 0.068871714 0.084699154 0.107053846 0.118897155 -0.19374079 0.21411495 0.09701826

dense2.bias f4 [10]
00000000: b4e3 4bbd 140d 4f3e e10a 723d 6808 cc3d
00000010: f389 dabd 19f6 133d eeae 17bb 58cd 0b3e
00000020: 8779 b8bd 86e0 27be
-0.0497777 0.20219833 0.059092406 0.09962541 -0.10670843 0.03612337 -0.0023145038 0.13652551
-0.090075545 -0.16394243
