modelLeNet5Variant.pt (torch, 180551 bytes, 10 tensors)

conv1.weight f4 [6, 1, 5, 5]
00000000: fa40 b33d 50f8 e53e ec0f 903e 7525 13bd
00000010: 2bc5 a0be 217d a03e dfb8 d13e ac7e 503e
00000020: fbb4 9dbd 0471 a2be c3ab ed3e 3ddc ae3e
00000030: cc1a 113e 7892 24be ccae 54bd e49a 893e
00000040: f905 bc3e e4d7 23bd d949 27be d36f 43be
00000050: 30ba 9f3e 948f 9a3e 9970 91bd 7b52 40be
00000060: 13c1 64be 4687 273e 2280 d93e a748 c53e
00000070: 79af 293d 01e4 49be f1c5 5e3e 0044 793e
00000080: b29c 2f3f 330c b73e 9c82 d03d 077c 1b3e
00000090: 1a3c ed3e a81e 393f abfa 203f bac7 d43e
000000a0: 0bbd 3bbe 3232 ac3b 9158 2d3e e0d4 fd3e
000000b0: e015 c93e c347 a0be a941 bebe 7167 3abd
000000c0: 4afa d23c 8b79 db3d 2f19 1d3e c872 6ebc
000000d0: d2e4 abbd ebbb d73d e9e6 b83e 6ac5 a63e
000000e0: 877e 063e ce44 f43e d75f 073f 6002 fa3e
000000f0: 0347 d93d 2fcf 4abc 1882 073d a122 083c
00000100: 1b1a 9c3d 3dec 83be 22ab 72bd f476 c5bc
00000110: 2415 53be d375 52be eb02 f7ba 16d8 c9bc
00000120: 99f6 edbe 4d1a febe 8e1c 8abe 4263 d73b
00000130: 085e 453e 8bb8 c83d d1b4 b2bd e224 00be
00000140: 2390 6fbc 1916 333e 4774 003d e7dd 91bc
00000150: 7735 11bb 39d3 473e 7184 0d3e ce6a bab8
00000160: d7fa 7bbe 3c35 9fbe 212e b43e 02fe 473e
00000170: 8a59 793d 62f2 85be 6a54 52be c426 4c3e
00000180: 10a5 8e3e 13e9 e4ba 9a1e 563e 6f0b f93d
00000190: a5ca 58be 4dd0 60bd a993 9dbe 7c56 78be
000001a0: 5bac aabc 25de 42be 6f6c b8be faf9 92be
000001b0: 02c5 75be 7c92 913e fc90 89be 6a77 8cbe
000001c0: 74a0 b83d 9c16 233e 2356 e23d 7a1f 803d
000001d0: 8972 943c 5c27 b83d 5e9f d63e 577a ad3e
000001e0: bb90 703e b580 ca3e d122 c83e 6a1c e83e
000001f0: b810 4f3e 1581 873e 0f21 f2bc 4090 043e
00000200: 8366 0dbe 9338 44bd e6b6 96bd f845 4ebe
00000210: ee84 23be e919 86bd 18ff 1e3c 2723 2abe
00000220: 36d3 613d 6f9f 4fbe 85fc 48bd 047c 0bbe
00000230: 7fcf 823d 5b7b 993d 15e2 8d3c 2e57 a2bd
00000240: f00b a6bc d970 1dbe 60db 93bd 8a61 ab3d
00000250: 6136 2d3c 1041 963e
0.08752628 0.4491601 0.28137147 -0.035924394 -0.31400427 0.31345466 0.40961358 0.20360821
-0.07700535 -0.3172685 0.46420106 0.34152403 0.14170378 -0.16071498 -0.05192451 0.26875985
0.36723307 -0.04000081 -0.16336764 -0.19085626 0.31196737 0.30187666 -0.071015544 -0.18781464
-0.22339277 0.16360196 0.4248057 0.38531992 0.04142711 -0.19715883 0.21755196 0.24342346
0.68598473 0.35751495 0.10181162 0.15184031 0.46334916 0.723124 0.6288249 0.4155863
-0.18333833 0.005255007 0.16928317 0.49576473 0.39274502 -0.3130475 -0.3715947 -0.045508806
0.025754113 0.10716542 0.15341638 -0.014553733 -0.083932534 0.105338894 0.3611367 0.3257249
0.13134204 0.47708744 0.52880615 0.48829937 0.106092475 -0.012378498 0.03308305 0.008309037
0.07622167 -0.25766173 -0.059245236 -0.024104573 -0.20613533 -0.20552759 -0.0018845474 -0.02463917
-0.46477202 -0.4962944 -0.2697491 0.0065731118 0.19274151 0.09800824 -0.08725894 -0.1251407
-0.014621767 0.17488898 0.03136089 -0.017806007 -0.0022157112 0.19514169 0.13820054 -8.889065e-05
-0.24607407 -0.31095302 0.35191444 0.1953049 0.060876407 -0.26161486 -0.20540014 0.19936663
0.27860308 -0.0017464481 0.20910111 0.12160384 -0.21171053 -0.05488615 -0.30776718 -0.24251741
-0.020834139 -0.19030054 -0.36020228 -0.28706342 -0.24000934 0.2843207 -0.26868427 -0.27434856
0.09014979 0.15926594 0.110515855 0.06256004 0.01812102 0.08991882 0.41918463 0.338824
0.2349271 0.3955132 0.39089063 0.45334178 0.20221221 0.2646567 -0.02955678 0.12945652
-0.13808636 -0.047905516 -0.07359104 -0.20143878 -0.15968677 -0.06547911 0.009704374 -0.16614972
0.055133067 -0.20275663 -0.049068946 -0.13621527 0.06387233 0.07494231 0.017319718 -0.079267845
-0.020269364 -0.15375079 -0.07219577 0.083682135 0.010572047 0.29346514

conv1.bias f4 [6]
00000000: 9360 4d3e 4683 bf3e 3561 983e 9d87 6d3c
00000010: b345 c13d 61a3 ec39
0.20056371 0.3740484 0.29761663 0.014497665 0.09437122 0.00045135155

conv2.weight f4 [16, 6, 5, 5]
00000000: a872 39bc 6b45 5cbd 53ac a83c 7e98 82bd
00000010: 88d4 9abd 65ad b63d b666 d1bc b960 8ebd
00000020: 9b4d f3bc 3202 7ebd b719 d73c 6e75 c23c
00000030: 2292 133d 121b 0dbb add4 6abd b3fd ddbc
00000040: 3ef8 a1bd 8514 6abb 8376 a1bd 871b b5bd
00000050: e82d 4dbd f3eb 76bc e6ee 69bd cdb5 f33c
00000060: 2faa d5bc c51b a83d 8486 94bd 1412 a2bd
00000070: 76a8 88bc bd7f b6bd 84f1 31bd 0943 56bd
00000080: 81a6 75bd c76e fe3b dcbc 58bd 59c7 8f3d
00000090: c16e e53b 458a 4d3d 6838 773c 2ac2 3cbd
000000a0: 561f 553d 9ae2 29bd 8ec1 17bd 2088 133c
000000b0: 3d09 f23d 0611 56bd 1ca0 a3bc 842c c4bd
000000c0: 5eed 323d dcea eb3d 74d4 88bd 335e ae3d
000000d0: 13dc 9e3d 0aa6 07bd 0d7d c8bb 59a3 56bd
000000e0: f281 8cba 0af1 9abd 3ee7 70bc 83fb 353d
000000f0: c5ff 3abd b9f2 103b 4e1a 643c 050e 96bd
00000100: 4671 91bc cb0d af3c 32b0 83bd 5816 06bd
00000110: 704b 7e3d 1f97 4cbd 3519 483d 2835 9bbd
00000120: d0bb a4bc 2cb3 f9bc f9dd 7d3d 0f42 af3d
00000130: de96 ae3d 40ac 263d 5360 92bd 0ff5 363d
00000140: 13f1 433c 6e83 4b3d c2db 61bd cbdf b8bc
00000150: a435 353d 1a26 84bc a236 22bc 6b51 3cbc
00000160: 8de5 403d b9eb 0bbd c96a 043d b436 97bd
00000170: 895c 293c 8fc0 dbbc e87f 12bc 4c2b 423d
00000180: 3be0 9a3d 8899 123d dec0 d8bc 3155 5d3c
00000190: 2b60 8ebd 17e1 1abb 8f2b 5dbd 8fcd 8fbd
000001a0: d6e7 f2bc d9a0 9fbd 1080 803d f58e 1cbc
000001b0: e969 3d3d debc 8ebd cc18 38bd 31e0 223c
000001c0: b9b8 983d aae8 d43c 7ddb a83d b2ee 4f3d
000001d0: f819 d7bc 30f3 b1bd 760a 32bd b1d3 57bd
000001e0: 8af3 dabc 66df 9e3d b5cd 813d feb4 43bd
000001f0: 0715 e53c 6689 62bd 91fb 343c e5e2 903d
00000200: 10a7 0c3d ffda bbbc 50b7 9b3d 5794 4b3c
00000210: d9a3 75bd a60d bb3b aee3 153d d88a 95bd
00000220: fa76 713d ae21 5fbc 6c00 35ba 6990 093d
00000230: 9442 8dbd 89db 583d 750a 21bc 3076 243c
00000240: 55f5 1c3c 0541 603d cee7 71bc 0d07 5a3d
00000250: 7e4b 1fbd c426 763d 8423 6dbc f5a4 9ebd
00000260: 359c 383c 0627 b83d cff8 833d 76b4 b2bc
00000270: 7bfe 3a3d 48cb a5bc 612a 913d 6545 113e
00000280: 18d3 413b bbcb 533d c46e c23c 5998 893c
00000290: 1c5d 0f3e 9652 a03d 2d80 2cbd 34b3 f33c
000002a0: bdaf d7bc e812 aebc 9b4e 69bc b15a b13c
000002b0: b88c a23c eff3 e3bd aaba 02be 1ff2 87bc
000002c0: 0d4f cf3a b551 eebb 0251 743c 4bea 85bb
000002d0: c7cc b73c b8a7 1ebd d6a1 81bd 20ac 9e3d
000002e0: 193b 733d 3a76 a8bd c101 9dbd 9b7c 993c
000002f0: f616 9c3d 49fc 0dbd 37d4 d2bd 622f b3bd
00000300: c86f 3f3c 3dcf 683e 4a28 483e f0da afbd
00000310: 586d 89bd e8cb d83a ea8d a93d df57 4d3e
00000320: a771 dd3c e21c eb3b b733 febc 5841 aebd
00000330: fcd7 eb3b d67f 0b3d 7d3a 08bd 0fa3 3bbd
00000340: 1ced 4b3c d047 41bd fa6f 1ebd f9a4 eebd
00000350: a6b7 28bd 6acf d2bd 4b13 14bd ea0d 31bb
00000360: c338 dc3b ea17 9a3d ec94 12bc 5f32 0e3e
00000370: a042 55bd 64fc 2d3d 68eb a23d 0cfd 053e
00000380: 9ce4 7c3e feb9 23bc 8e89 593a 76e9 653d
00000390: 4ffb 863d e6ea 783d 660d 55bb da83 6e3d
000003a0: 7243 413d e98d 6d3d f7a2 193d 779d 42bc
000003b0: aa16 853d bd30 e73c 9485 d33d ae14 b53d
000003c0: 435b 4abd 5115 dbba 49e7 2fbd 02c4 103d
000003d0: aa1d 653d 47fd 95bc 0cd1 d1bd 0a91 08bc
000003e0: 50cb f3bd acc1 06be a49b 6e3d 7834 5e3d
000003f0: 0d73 723c d652 fa3d 6c0d a0bc a847 973d
-0.01131884 -0.05377714 0.020589983 -0.06376742 -0.07560068 0.08919791 -0.025561672 -0.06952042
-0.029700091 -0.062013812 0.026257379 0.023737635 0.036028035 -0.0021531028 -0.05733173 -0.027098512
-0.079086766 -0.0035717797 -0.078839324 -0.08843141 -0.050092608 -0.015070903 -0.057112597 0.029749775
-0.026082126 0.082084216 -0.07252219 -0.079136044 -0.016681891 -0.08911083 -0.043443218 -0.052310023
-0.059973244 0.0077646705 -0.052914485 0.070204444 0.0070017283 0.050180692 0.015089132 -0.046083607
0.052031837 -0.04147587 -0.037049823 0.009004623 0.11818168 -0.05226233 -0.019973807 -0.09578803
0.043683402 0.11519405 -0.06681147 0.08514061 0.077568196 -0.03311733 -0.006118423 -0.052401874
-0.0010719879 -0.07565506 -0.01470357 0.044429313 -0.045654077 0.002211733 0.013922287 -0.07326893
-0.017754208 0.021368882 -0.06430091 -0.032736152 0.06208366 -0.049948808 0.048852164 -0.07578498
-0.020109087 -0.030480944 0.061979268 0.085575216 0.085248694 0.040691614 -0.07147279 0.0446673
0.011959332 0.049685888 -0.055141218 -0.02256765 0.04424061 -0.01613145 -0.009900721 -0.011494021
0.047093917 -0.03416035 0.0323284 -0.07383481 0.0103370035 -0.026825218 -0.008941628 0.047404572
0.075623 0.03579095 -0.026459154 0.013509081 -0.06951936 -0.00236327 -0.05399662 -0.07021629
-0.029651564 -0.07794351 0.06274426 -0.009555568 0.046243582 -0.06969617 -0.044945523 0.009941147
0.07457108 0.02598985 0.08244989 0.050764747 -0.0262575 -0.086889625 -0.043467008 -0.05269212
-0.026727457 0.077574536 0.06338064 -0.04778003 0.027964128 -0.055306815 0.011046306 0.07074527
0.03433901 -0.022931574 0.076033235 0.012425504 -0.05997071 0.005708414 0.036594085 -0.07301873
0.058951356 -0.01361887 -0.0006904665 0.033584986 -0.068974644 0.05294374 -0.009829153 0.010037944
0.009579976 0.054749507 -0.014764739 0.05322938 -0.038890354 0.060095564 -0.0144738 -0.07746307
0.011267711 0.08991818 0.06443941 -0.021814566 0.045652848 -0.020238534 0.07088161 0.14186628
0.0029575285 0.051707964 0.023734458 0.016796278 0.14000362 0.07828252 -0.042114425 0.029748537
-0.026328916 -0.02124925 -0.014239932 0.02164969 0.01984249 -0.11130511 -0.12766519 -0.016594945
0.0015816406 -0.007272924 0.014911892 -0.004086768 0.022436513 -0.038734168 -0.06329696 0.07747674
0.05938253 -0.08225675 -0.0766635 0.018736174 0.07621567 -0.034664426 -0.10294383 -0.08749272
0.011684366 0.22735305 0.19546619 -0.08586681 -0.06710309 0.0016540261 0.08279021 0.20053051
0.027031733 0.007175074 -0.031030519 -0.08508557 0.007197378 0.03405746 -0.033258904 -0.0458098
0.012446668 -0.047187626 -0.038681008 -0.1165256 -0.041190766 -0.10293467 -0.03615121 -0.002701635
0.0067206337 0.075240925 -0.008946639 0.13886403 -0.05206549 0.042477027 0.079550564 0.13084811
0.24696583 -0.009993074 0.00082983903 0.05613085 0.06590902 0.06077089 -0.0032509207 0.058231212
0.04718346 0.057996664 0.03750893 -0.011878363 0.064984635 0.028221482 0.103282124 0.08841835
-0.04940344 -0.0016714727 -0.04294518 0.035343178 0.055936493 -0.018309249 -0.10244951 -0.008335361
-0.11904013 -0.13159817 0.0582539 0.054249257 0.014797938 0.12222831 -0.01953765 0.07386714

conv2.bias f4 [16]
00000000: e023 96bd 2a55 9f3b ff7f cb3d 1a68 abbd
00000010: 41d7 8ebd 5bf1 8bbc 87b4 883d 665f 533d
00000020: 007f ad3d 7be6 6bbd 46df a13d 8302 5cbd
00000030: 9f50 b3bd f52f ed3c 6225 8e3b dbb9 963d
-0.07331061 0.0048624473 0.09936523 -0.08369465 -0.0697465 -0.01708286 0.06675058 0.05160465
0.08471489 -0.05759285 0.07903914 -0.053713333 -0.08755612 0.028953532 0.0043379525 0.07359668

fc1.weight f4 [120, 256]
00000000: fcfe 413c 098d 553c 5f11 8cbc 354f e93c
00000010: 9770 10bd 7dc0 0bbc dcdd 553c b12f 8dbc
00000020: 1477 99bb 4524 043d 8dcb 25bd 5536 debc
00000030: ab6a 10bd 5328 5e3c d96b 77bd 5711 023d
00000040: ba71 523c 6e99 03bd f5f9 553d bd40 12bd
00000050: b4ac 99bb baea 903d 8efd 6dbc c022 c93c
00000060: 8730 543a 19ad 9d3d 5bb6 8bbd 70d5 eabc
00000070: 88d8 e4bd 459b afbc 289a 7dbc 350a 173d
00000080: 10fc 8cbc 7b8f c7bc 080d b43d 3ce9 46bd
00000090: f227 f13b 7817 10bd f859 933d ffa3 863d
000000a0: b8ed 7a3c 43f4 2d3d 3630 863d 8ac6 39bc
000000b0: d1ea b73d 2664 afbc d77a bc3c a59b b0bb
000000c0: 982a 8abd 6a3b a4bd 58f1 173d 592e d73b
000000d0: 6dbc a8bd ce73 b4bc b995 0cbc 24bc 1fbd
000000e0: fa09 32bc caa6 9bbc 5640 8c3b aae6 3fbd
000000f0: 4917 9cbc 76b3 893d 77d9 df3c 0787 b9bc
00000100: 1b84 9abc 6df7 2e3b 7c31 153b e1c6 87bd
00000110: 63fa 87bd 77ba 903c 9651 89bc e642 ddbc
00000120: 7340 87bd 6bfa 26bd df01 97ba a952 6b3d
00000130: f37c 73bc bd68 d0bd e3f1 fcbc 0897 15bc
00000140: 1d97 5ebd 3f9c bcbc ad2a d9bc 971c 9b3b
00000150: 3a42 f63c 1c5a a43c dba7 ba3d d483 7f3d
00000160: dcf2 5cbd 3735 083d f310 dcbb 2bc2 70bd
00000170: 7bd8 a9bc acfe 3d3c fb54 79bd 58da 2cbc
00000180: 3b66 333d f1d5 0e3d 4abf 8a3b a1ff 30bd
00000190: a35d 313d 7377 833c 4c95 0ebd 4b83 ac3c
000001a0: c4bd ba3c d7cc 873d f3a2 7cbb 6502 bd3c
000001b0: e830 003d c598 29bd af3d 733d 3972 c33c
000001c0: 366b 0fbd 06fe 3b3d bd58 253d 3d43 143d
000001d0: b39d a6bd 1fa0 b93c 9bb6 66bd 788a 683b
000001e0: 00fe 84bb c379 66bd 97f3 253d 56d5 41bb
000001f0: 95d0 4b3c b55f 8bbc 5640 0f3d 5a44 833c
00000200: 874c 0ebd a126 043d 891f 1abc e529 6d3d
00000210: 87c1 c33c 8fcc 7e3b 55a2 8f3d eea6 4e3d
00000220: cacf 8c3b 8253 aa3c 8755 233d da5e 0fbd
00000230: c06b 68bb 2a2e b5bc 27ba 8f3d a538 61bd
00000240: 608c 87bd 850a 443c f43d a8bd aef6 a8bc
00000250: c5c7 6bbd 425d 8e3c 10bd 6bbc fdec c8bb
00000260: 4472 c9bc 36a1 ae3c 65d8 f0bb bd0b 86bd
00000270: d246 b5bc 8ed8 8bbd ae94 83bd e8fc 073c
00000280: df05 863d 3399 5f3d 2dfc 973d 83a9 023d
00000290: 1c1c ecbb 6953 c43c 7221 01bc a31f e7bb
000002a0: 9aef 193d 5a67 3cbd cec1 44bb 0574 b53c
000002b0: e17a fd3c 1385 6fbc ecd1 5cbc e1a4 83bd
000002c0: 283b 233d df09 46bd 39f0 543c 31ba 833d
000002d0: 0759 d939 b253 043d cdae 903d 3c92 223d
000002e0: 0c0d 853c 82fe 35bd d799 a3bc 7577 dd3b
000002f0: c025 a5bc 8d91 943c 7bcf 7a3d 2b9b 5a3d
00000300: fef9 9ebc 2e37 423d 1ad6 febc 1035 3b3d
00000310: 4aec 3e3d 222d 183d c9a4 743d 605a 323d
00000320: b094 4cbd 540d 86bc ed9c b93c eab6 3a3d
00000330: 4538 413d 9c4e 8ebd 3bcb f7bc 3a5b 1f3b
00000340: f71b 9dbd 5917 95bd f809 9c3c 6fd9 a6bb
00000350: cc63 43bd 215e 943c b48a 4f3d 9d44 39bd
00000360: 7204 813d 7c7d e23c 0744 d13a 8f6a 2abd
00000370: df39 ce3c 9705 023d 2d58 d0bc 9a10 0a3d
00000380: 6e93 393d fffc 08bd 707c 5e3d 21fa 0bbd
00000390: 2c9d 363d db09 2abd 9c5c d6bb 7f86 923c
000003a0: b0d2 083d 6960 97bb b26c b63c df96 943c
000003b0: 62d9 a8bd bbe4 723c 3199 21bd 52c2 2f3d
000003c0: b8ef 3cbd 274f 55bb d68b 4d3d e032 fbbc
000003d0: 56f1 57bd 46d1 643d 4992 35bc b552 fd3c
000003e0: b32d bcbd de1b 04bc 3941 053d 9ac4 6f3d
000003f0: 7fd8 383d 40d7 4a3d e2bd 2a3d 57aa 53bd
0.011840578 0.013034114 -0.017098127 0.028480152 -0.035263624 -0.0085297795 0.013053384 -0.017234655
-0.0046833847 0.03226115 -0.040477324 -0.027125517 -0.035257977 0.013559419 -0.060405586 0.031754818
0.012844497 -0.032128744 0.05224033 -0.03570627 -0.0046897773 0.070760205 -0.014525784 0.024552703
0.00080943893 0.076990314 -0.06821891 -0.028666228 -0.111741126 -0.021436343 -0.015478648 0.03687497
-0.017210037 -0.024360409 0.08791548 -0.048562273 0.007359498 -0.03517863 0.071948946 0.065742485
0.015315466 0.042469274 0.06552164 -0.011338839 0.089803346 -0.02141006 0.023007793 -0.005389648
-0.06746405 -0.08019145 0.037095398 0.0065668044 -0.08239064 -0.022027876 -0.008580619 -0.038997784
-0.010866636 -0.01900043 0.0042801304 -0.046850838 -0.019054072 0.067236826 0.027325375 -0.022647394
-0.01886182 0.002669777 0.002276509 -0.0662973 -0.06639554 0.017667038 -0.016762536 -0.027009439
-0.066040896 -0.04076616 -0.0011520943 0.057451878 -0.014861333 -0.10176227 -0.03087706 -0.009130247
-0.05434333 -0.023023723 -0.026509607 0.004733633 0.030060876 0.020062499 0.09114047 0.06238158
-0.053942546 0.033253875 -0.0067158877 -0.058778923 -0.020733109 0.011596363 -0.06087206 -0.010550104
0.043798666 0.034872 0.004234229 -0.043212537 0.04330219 0.016048169 -0.03481035 0.0210587
0.022795565 0.06630867 -0.0038549274 0.02307243 0.03129664 -0.041405458 0.059384998 0.023858177
-0.035014354 0.045896553 0.04036783 0.036196936 -0.081355475 0.02265936 -0.05632649 0.0035482924
-0.0040585995 -0.056268465 0.04051551 -0.002957662 0.012439867 -0.01701341 0.034973465 0.016023804
-0.03474095 0.032263402 -0.009406933 0.057901282 0.023895992 0.003887925 0.07013384 0.050452165
0.0042972313 0.020791773 0.039876487 -0.035002567 -0.0035464615 -0.02211674 0.070179276 -0.05498566
-0.06618571 0.011965399 -0.082149416 -0.020625439 -0.057563562 0.017378453 -0.014388338 -0.006131767
-0.024590619 0.021317106 -0.007350015 -0.06545208 -0.022128496 -0.06828414 -0.06424843 0.008300044
0.065440886 0.05458946 0.074211456 0.03189994 -0.0072054993 0.023965554 -0.007881509 -0.007053332
0.037582017 -0.045997 -0.0030022743 0.022150049 0.030942382 -0.01461913 -0.013477784 -0.064279325
0.039851338 -0.048349258 0.012996727 0.064319976 0.00041455796 0.03230638 0.070645906 0.03969024
0.016241573 -0.04443217 -0.019970817 0.006758625 -0.020159602 0.01813581 0.061233025 0.053370636
-0.019406315 0.047415905 -0.031107951 0.0457049 0.04661206 0.037152417 0.059727464 0.04354322
-0.049946487 -0.016363777 0.022657836 0.045584597 0.047172803 -0.06948587 -0.030248275 0.002431585
-0.076713495 -0.07279844 0.019047722 -0.005091838 -0.047702596 0.01811129 0.050669387 -0.04523145
0.06299676 0.027647726 0.0015965708 -0.04160553 0.02517408 0.031743612 -0.02543267 0.03370724
0.045306616 -0.0334444 0.05431789 -0.03417409 0.044583485 -0.041513305 -0.0065418016 0.017886398
0.033404052 -0.0046196473 0.022268627 0.018138347 -0.082445875 0.014825041 -0.039452735 0.042909928
-0.04612705 -0.00325484 0.050182186 -0.030663908 -0.05272039 0.05586364 -0.01108224 0.030923227
-0.09188404 -0.008063285 0.032532904 0.058537103 0.04512834 0.049521685 0.041684993 -0.05167612

fc1.bias f4 [120]
00000000: a1dc f73a d7a5 1d3d 30b7 b2bc de7a 4cbd
00000010: 5dbd 13bd ddec 78bd f223 863d f38a e63c
00000020: 0d99 58bd 90de 5bbc f67a 48bc f633 6c3d
00000030: a1bd 5bbc 7650 41bc f406 1c3d d5c8 c83b
00000040: 61ec 413d 5c76 0abd 50f4 693d 8dc7 933c
00000050: 4e62 86bc 657c 70bd ed9b 863c dbb0 38bc
00000060: 9c7e 5d3c 9a31 3fbd 3716 1cbd baa7 2fbd
00000070: cbbc 313d f7d5 323c b46f ae3c c3c8 a0bc
00000080: c539 61bd e04b 403d d450 3ebd aa80 6e3d
00000090: 0aa8 1abd 37a5 1abd 4592 673c 0abd 2d3d
000000a0: 45e3 68bd 15ca f13c c742 573c b27a 80bd
000000b0: aac8 933c ce53 57bd 8ce4 22bb 06c0 44bd
000000c0: d4cf ea3c 4d43 7cbd 48f9 383d 8314 10bc
000000d0: d8b0 e03c 116c 3d3d f543 6a3d aaa3 b73b
000000e0: bcea 66bc 20d9 dbbc 6b05 113d 0269 9abc
000000f0: d0e4 6f3d 43b2 28bc 8ba0 4f3c 2e72 54bc
00000100: f855 42bd 6dc9 51bd 871c 423d 20dd aeb9
00000110: bd94 023d 71cf fcbc f257 093d b144 46bd
00000120: 7ecd 21bd 9c2a 463d 14dd 37bc a238 7c3d
00000130: 607a 3e3c 692c 5b3d 8d08 1ebd 2f32 873c
00000140: 8971 3fbc 18c6 ebbc e386 a13c c892 793d
00000150: 088a 5dbc 5606 ca39 5199 0bbd 7577 eb3c
00000160: fa92 423d b2a9 7abd 190d 6fbc 7ad3 b43c
00000170: cc56 29bd 191d 733d a3be c4bc 97fa 173b
00000180: e8e2 bbbc cf7f 75bb 3d75 06bd fb8d 35bd
00000190: 03da ac3c 7434 32b9 2d06 c43c d1df 523d
000001a0: aa8f 8dbc 699e bfbc 6918 bc39 2783 04bd
000001b0: 2e68 93bb 9ea5 f2bc d32d 15bd 271b 733b
000001c0: e4e8 5cbb 0270 283d 8646 18bb 9934 923c
000001d0: a0f4 87bb 1f82 573d 783d 9fbc a80e 663d
0.0018910357 0.038488235 -0.021815866 -0.049921863 -0.036069263 -0.060772765 0.06549825 0.028142428
-0.052880336 -0.013419762 -0.012236347 0.05766674 -0.01341191 -0.011798969 0.03809257 0.0061274567
0.04734457 -0.033804283 0.05711776 0.01803949 -0.016404297 -0.058712382 0.016431773 -0.011272634
0.013518956 -0.046678163 -0.038107123 -0.042884566 0.043392938 0.010915271 0.021293499 -0.01962698
-0.054986734 0.04694736 -0.046463802 0.058228172 -0.03775791 -0.037755217 0.0141339945 0.04241661
-0.056857366 0.029515306 0.01313848 -0.06273402 0.01804002 -0.052570157 -0.0024855463 -0.04803469
0.028663553 -0.06158762 0.045159608 -0.008793953 0.027428076 0.04624564 0.057193715 0.005604227
-0.014094051 -0.026836932 0.035405558 -0.0188489 0.058567822 -0.010296407 0.012672554 -0.012966676
-0.047445267 -0.051217485 0.047390487 -0.00033352617 0.03188013 -0.030860635 0.033531137 -0.048405353
-0.039502613 0.04838048 -0.011222143 0.061577447 0.011625856 0.05350915 -0.038582373 0.016503422
-0.011684784 -0.028780982 0.01971764 0.060930997 -0.013521679 0.00038533163 -0.03408176 0.028743485
0.04750345 -0.06119699 -0.014590525 0.022073496 -0.04134254 0.05935392 -0.024016684 0.0023190135
-0.022935346 -0.0037460213 -0.03282665 -0.044324856 0.02110005 -0.00016994943 0.023928726 0.05148298
-0.017280418 -0.023390966 0.0003587634 -0.03235164 -0.004498503 -0.029619988 -0.036420655 0.0037095041
-0.003370815 0.041122444 -0.0023235395 0.017847346 -0.0041490346 0.052614328 -0.01943849 0.05616632

fc2.weight f4 [84, 120]
00000000: 1629 073d 6ebc 9e3c 8d9b e73b 92ff a83d
00000010: 3bd1 9e3d bc40 cabd 5565 74bd 3ad9 bd3c
00000020: 85cc 0ebd 75a7 733d 2f5b babd 2447 bcbd
00000030: c094 08bd c5c1 e73d 1a2b b73d 8ba4 a7bb
00000040: 2031 e6bc 7fed 13be b143 943c d2b3 bd3d
00000050: 59b2 d2bc 2d13 883d 9649 d63d 4504 35bd
00000060: 0883 c1bd 462c b93c 4a5a 30bd e466 843d
00000070: cb8a 06be 5af8 f93c 267c d0bd cc02 66bd
00000080: 4982 7dbc e48a b1bd 384d 533c 4696 ac3d
00000090: 443e c8bd 61fd f93c 3e0d 203d dd2e 54bc
000000a0: d8bb 87bc 6e3e 2fbd 00cc fbbc f682 04bd
000000b0: 6f31 6e3d c11f bc3d 2653 683d c431 893d
000000c0: 89ff e4bd fa1e 51bd 5eae 913d a030 9e3c
000000d0: 1626 e1bd 1b9a debd 30c9 ac3d e63a 06be
000000e0: 3acb a03d d94e bd3d d540 8e3d bfae e53d
000000f0: 2a34 98bd 0656 c2bd 34ac 0abc 7971 42bd
00000100: d8eb 763d e5dc 9dbd 5726 933d 52e3 b83b
00000110: 56ba 193e 038a 91bd 4596 9f3d ab5e 9f3c
00000120: fd4c 9f3d 9e1c f9bc df63 8a3c 1956 283d
00000130: 961e 573c cc4b cbbd 94e7 9c3d 17eb a639
00000140: 9f7f a1bd 896f aebd 3627 ff3c 6dd8 903c
00000150: 377f 24bd 06fa 2d3c 4829 d0bd 2dae fd3c
00000160: e81d b43d 91bc 40bd 1e16 03bd 3b23 38be
00000170: a751 2fbd 3c9d b8bd 8177 7d3d d122 bc3c
00000180: a5ab e03d 6bf6 953c 423a 3a3a 78d4 14bd
00000190: 0dbd 2ebd 1848 9bbd c7e5 863d 77a4 b63d
000001a0: ec75 883d e456 4abd c75e d5bd 67d7 86bc
000001b0: b2fa 8b3d df9a 473d 6b26 9e3d a7f6 54bd
000001c0: 5e7d e63d 93cb 08be d910 363d dc29 9c3c
000001d0: 52b1 f1bc cdf1 1b3d 74da ab3d 9448 3038
000001e0: cbf3 69bd c0d0 6b3d 8fbd 893c aad2 74bd
000001f0: f18e b23d b1c2 053e be92 10bd dd08 6b3c
00000200: 02d9 89bd d971 c03d 7a26 18bd 7df2 c43d
00000210: 255b 25bd 69e1 793d f834 063d 4f01 a33d
00000220: e7ab d53c ace5 a6bd de0e 2ebc 2433 c43d
00000230: 73cf 733d 7bf9 143c 3140 c5bd a7aa 63bd
00000240: f310 983d dbc7 39bd 22bf 2a3d c224 a0bd
00000250: b6ef 373d 8599 40bd cdee e2bd 9b38 61bd
00000260: 5c16 c0bc 276f e4bc b317 88bd b98e 813d
00000270: 70dc ad3d 3ef3 de3b 5fbc c0bd f70a 863d
00000280: 3260 58bc 7c48 223c 22d7 a0bd 3e0b 8fbd
00000290: 59ff 913d 5573 5f3d 736c af3d 52e6 6cbc
000002a0: 0c2c 8bbc 16aa a3bc ecf6 a93d d879 b93c
000002b0: 2201 02bd 555c f8bc 12aa 1d3c a9a2 253b
000002c0: d7e8 88bd 51d7 5abc 4c3d a2bd f7b8 cebd
000002d0: c6c2 7a3d 2a0d a73d 994c 74bd 64a1 173d
000002e0: 1478 beba 6ab0 443d 00ea 83bd 8c4e 1bbd
000002f0: ba05 863d 56c5 43bb 979a e93d 511e a63d
00000300: 867e 1ebd 849b 873d ce20 c2bd a7d1 1e3d
00000310: f2ab 643c d672 093d 6d80 953d e939 7dbd
00000320: bcc8 16bd 2dd8 6ebd dbc3 8fbd dd19 aebd
00000330: d5e6 52bd cc63 c93d fa50 58bc 42a8 5e3b
00000340: 7a1f 12bd fee3 e23d 0760 8f3d 4869 cc3d
00000350: 1ce6 283c 03ea 67bd a76b 4cbd af37 babd
00000360: 119a 53bc 235c f73c 299f 3fbd 41cb fbbc
00000370: 39f2 813d af0a ed3c 13f3 363d c7e9 903d
00000380: 78f2 31bd 9da1 76bd 3bc5 15bd 0a26 283c
00000390: 5bcc 9b3d 3473 8cbd 98a1 a1bc 8630 123b
000003a0: b9f0 77bd 9ba3 113d 7b17 a3bd 361b 3ebc
000003b0: f216 a13c 0465 0dba 9e12 9cbc 6898 463d
000003c0: b385 653c a2b3 ff3c 4bff bc3c 258f a13d
000003d0: 9390 0e3b 8bd0 41bd 01e7 b7bd 6766 2b3d
000003e0: 6db7 703d 91c4 0a3d a541 6ebd 6075 fbbc
000003f0: b923 9ebd 1e2e 6dbd 5250 babd ffdd 4ebd
0.032998167 0.01937696 0.0070681036 0.08251871 0.07754751 -0.09875628 -0.05966695 0.02317487
-0.034863014 0.05948587 -0.09099423 -0.091932565 -0.033344984 0.113162555 0.08943768 -0.0051160506
-0.028099597 -0.14446066 0.018098684 0.09262814 -0.025719808 0.066442825 0.10463254 -0.044193525
-0.0944882 0.022604119 -0.043054856 0.06464937 -0.13138883 0.030513931 -0.101799294 -0.05615501
-0.015472957 -0.086690694 0.012896828 0.084271 -0.09777501 0.030516328 0.03907513 -0.012950626
-0.016569063 -0.042784147 -0.030736923 -0.032351457 0.058152612 0.09185744 0.05671992 0.06698945
-0.11181552 -0.051054932 0.07113336 0.019310296 -0.109935924 -0.10869237 0.08436811 -0.13108405
0.078512624 0.092435546 0.069459595 0.11214971 -0.074318245 -0.09489064 -0.008463908 -0.047471497
0.060283512 -0.07708148 0.07185047 0.005642333 0.15012488 -0.07106402 0.077923335 0.01945432
0.07778356 -0.030409154 0.016893325 0.041097734 0.013129851 -0.099265665 0.076613575 0.00031837143
-0.0788567 -0.085173674 0.031146627 0.017681325 -0.040160384 0.010618692 -0.10164124 0.030966843
0.08794767 -0.04705483 -0.032003514 -0.1798219 -0.04280248 -0.09014365 0.061881546 0.02296582
0.109702386 0.018305978 0.0007104018 -0.03633544 -0.04266076 -0.0758211 0.06586795 0.08918088
0.06663117 -0.04939927 -0.10418468 -0.016460134 0.06834926 0.04873168 0.077221714 -0.05199304
0.11254381 -0.13358907 0.04444966 0.019062929 -0.029503498 0.038072396 0.08391276 4.2029264e-05
-0.057117265 0.057572126 0.016814021 -0.059771217 0.0871867 0.1306255 -0.035296194 0.014345375
-0.06730844 0.09396715 -0.03714607 0.096165635 -0.040370125 0.061005984 0.03276536 0.07959234
0.026082946 -0.08149275 -0.010623662 0.09580067 0.05952401 0.009092684 -0.09631384 -0.05558267
0.07425108 -0.045356613 0.041686185 -0.07819511 0.04490634 -0.047021408 -0.11080704 -0.054985624
-0.023448162 -0.027885033 -0.06645145 0.0632605 0.08489311 0.006803899 -0.09410929 0.0654506
-0.0132065285 0.009904977 -0.07853533 -0.06984566 0.07128782 0.05455335 0.08565607 -0.0144592095
-0.016988777 -0.019978564 0.0829905 0.022641107 -0.03173936 -0.030317465 0.009623067 0.0025273955
-0.06685036 -0.0133569995 -0.07921848 -0.10093873 0.061220907 0.08156808 -0.05964336 0.03701915
-0.0014531636 0.048019804 -0.06441116 -0.037916705 0.06544061 -0.002987226 0.11406439 0.08111251
-0.03869488 0.06621459 -0.09478913 0.03877416 0.013957011 0.03355678 0.07299886 -0.061822806
-0.03681253 -0.05831163 -0.07019778 -0.08501027 -0.05148967 0.09833488 -0.0132029 0.0033974801
-0.03567455 0.11078642 0.07000738 0.09981018 0.010308769 -0.056619655 -0.049907353 -0.09092652
-0.01291515 0.030195301 -0.046782646 -0.030736567 0.063450284 0.028935758 0.044665407 0.070758395
-0.043444127 -0.06021272 -0.036565047 0.0102629755 0.07607337 -0.06857911 -0.019730374 0.0022306754
-0.060532305 0.035556417 -0.07963463 -0.011603167 0.019664261 -0.00053937756 -0.019051846 0.04848519
0.014008927 0.031213585 0.023070952 0.07888631 0.0021753653 -0.047318023 -0.089796074 0.041845705
0.05876868 0.033878867 -0.058168072 -0.030695617 -0.07721657 -0.05790531 -0.09097351 -0.05050468

fc2.bias f4 [84]
00000000: 2434 49bd aef5 4fbd a091 8bbc e6c6 51bd
00000010: 095a a63b 059c c639 28fb 153d 3365 603d
00000020: 2ec8 693d 72d7 46bd 3469 83bd aeda fa3c
00000030: c980 18bd e839 bc3d fa75 aa3b 96d6 ee3d
00000040: 30a0 c2bd c38b 3dbd a4c2 c73c ea5b 453d
00000050: 5c54 a83d 123d c5bc 89d3 3c3d 4191 05bd
00000060: d058 043d ea25 ac3d 881e 9ebd 0c3c 8abc
00000070: 2818 a3bd 0d9c 933d 2505 ea3c ee66 80bd
00000080: 8365 4dbd f8c3 9fbd e45a 123d af7a 733c
00000090: 4f1b 7bbd 7f4c 3d3d f10b a83d 673f 9dbd
000000a0: c974 383d 071b ab3c 9332 20bd e77e b5bc
000000b0: 993a 4a3b 99e4 303d fdf8 853d 58cf 99bc
000000c0: e706 013d 70f4 c9ba 5d6a fbbc 3c29 b83c
000000d0: cb8f ad3c 2746 b43d d1cb d5bc a333 883d
000000e0: 0607 cd3d a3fc b93d 5fea 363d 3739 4abd
000000f0: 14e2 02bd fa03 1c3d 66d8 dabc 2a61 ab3d
00000100: fc94 113b aba6 4d3d c31c 1f3d 1999 7dbc
00000110: 7458 5d3d a1c6 663d 27b8 87bd 2ffd 83bc
00000120: e12e 47bd 8d5a b4bc b733 ac3c a51c 813c
00000130: 5a3d 6a3c fc5c 5f3d 7336 013d 2860 c1bc
00000140: 6e88 503d 1cd9 a63c f585 6bbd 42ad 873c
-0.04912199 -0.050771408 -0.017037213 -0.051215075 0.005076651 0.00037881747 0.036616474 0.05478401
0.05707567 -0.04854531 -0.0641655 0.030621853 -0.037232194 0.09190732 0.005202052 0.11662023
-0.095032096 -0.046275865 0.024384804 0.04818336 0.08219215 -0.024076972 0.046100173 -0.032609228
0.03231126 0.08405669 -0.07720667 -0.016874336 -0.07963592 0.07207499 0.028566906 -0.06269632
-0.050145637 -0.0780105 0.03573121 0.014860793 -0.06130534 0.04621553 0.08205403 -0.07678109
0.04503325 0.020886911 -0.03911073 -0.022155238 0.003085768 0.043186758 0.06541631 -0.018775627
0.031500723 -0.0015407931 -0.030690366 0.0224806 0.02118673 0.08802443 -0.026098164 0.06650474
0.10011105 0.0908139 0.044657107 -0.04937097 -0.031953886 0.03808973 -0.026714515 0.08368142
0.0022214046 0.050207775 0.03884579 -0.015478396 0.054039434 0.05634177 -0.06626921 -0.016111938
-0.04862869 -0.022015834 0.021020753 0.01576073 0.014296854 0.054532036 0.031546067 -0.023605421
0.05091136 0.020367198 -0.0575008 0.016562108

fc3.weight f4 [10, 84]
00000000: aeb2 06be e86d 1fbc caa7 983d a779 36bc
00000010: cc27 e23d 1871 29bd de93 2dbe ea59 963d
00000020: 3b4d 903d 3c45 0a3b a88d e23d 0076 9c3d
00000030: 0691 733b 2d84 3d3e f0f5 a2bd c673 993d
00000040: 6cc7 64bb 8810 25bd 8dc3 dcbc 7ad3 193d
00000050: b006 31be 7216 8f3c 2350 0cbe b869 e23d
00000060: db8c d7bd 8503 f9bd 61eb ad3d 92c2 d33d
00000070: 527b f63d 0e04 96bd 5771 56be 7010 19bd
00000080: 2752 b5bd 666e 163d deae 50bd bf40 0f3e
00000090: 5d0e 993d 201e 913d 983b bcb9 9a95 fe3d
000000a0: edfb 5cbe d0e6 93bd 1335 50bd fe69 f23d
000000b0: 1579 1dbe b6e2 1bbe 860e 1b3e 83fc 963d
000000c0: 8aeb 8cbd 8e41 e7bd ce3b 77bd 1319 08be
000000d0: 815d 19bd 99bb 90bd 0754 21be a4f2 013c
000000e0: cded 653e 6cfe 7bbe 716c 70bd 56fc f73d
000000f0: f28e 333e 1bfe 223e a435 033d 9446 a53d
00000100: 5b8c 513d 52eb 31be d39a b0bd 7314 0e3e
00000110: 173f 4d3d eff3 9fbd 5b9c 02bd 347a 8d3d
00000120: 768d b13d a9c1 9c3d 5674 cd3c defb 0ebc
00000130: f1a0 2fbe 2d5a 7bbd eda1 de3d e4b4 01be
00000140: d49a 82bc 3346 a03b 9523 4a3e 8981 37bd
00000150: 1c14 a7bd 9b50 d5bd 5beb 5c3d 6bf3 a1bb
00000160: 5810 92bd 7b08 b83a 81e4 c63d 0510 c2bd
00000170: 4821 f6bd ca60 7c3d 3755 7a3d 0bf7 87bc
00000180: 560a debd 0029 13be 7ca1 fa3d 5bec 923e
00000190: 8c5c 2b3d a4c1 323d 8636 59be c442 e13c
000001a0: b7d7 273e 07c3 093e 1648 a3bc c2c9 c63c
000001b0: 4f87 63bc 935f fd3d d79a 3f3d fc19 e23d
000001c0: eb99 15bd ae3b e83d 46bb d3bd 6287 1bbd
000001d0: 6c31 15bd 4bd0 833d 9c90 ae3d 080a 4bbe
000001e0: 500a 8f3d f498 46b9 7ce4 efbd 8e4f 833e
000001f0: 2ebf 00be 8e06 1b3e b636 b7bd ddce 73be
00000200: 3942 b1bd e250 9abc ffbc 79bd 2f90 903d
00000210: e8d8 3e3e 6efa 8dbd 2fee 703e cccc b1bd
00000220: d657 3f3e 57e4 033e b5fe 0abe 0d1f 823e
00000230: a67e 20be 4783 79bd f811 c13d 58d8 bcbd
00000240: e576 b1bd 22d0 12be 23dc d1bd b42d 27ba
00000250: 9d85 0bbe 4e32 12be 2e35 45bd b09a cd3d
00000260: 5e19 7cbe 69a6 113d f411 33bb f681 1bbb
00000270: 4a3c 803d 0637 953d 73a7 9ebd b467 1d3e
00000280: 5313 44bb d13a 693e 2e73 7e3d 374a ccbd
00000290: 1d19 963c f1b3 1f3d 0239 c0bd 8732 27bd
000002a0: 26e0 f33b d95c 8c3c 5fe3 14bd a15d 703d
000002b0: e0d9 c8bd 48f1 403c 0fca 26be 033b 06be
000002c0: 8bbc 7b3d 4e0d ccbd 6d45 613e 3980 5cbd
000002d0: 0f88 9c3d e198 aa3c c4ef 323e 6421 43bd
000002e0: 71fe 20bd 7295 c3bd 3e73 40bd 3d2e 4d3c
000002f0: 6dd8 4abe 0c9c 57bd 69a5 093e b669 843c
00000300: a773 c0bd bee1 66bd 81bc d6bd aafe ccbd
00000310: c54c 15be c271 0cbd d212 49be ee2d d03d
00000320: 00e3 383d f20d 0ebe 67bc 1fbe bcdf e0bd
00000330: b149 43be 6445 86bd 46eb e83d b9bf f0bd
00000340: 1e90 36be c3a8 3a3e d1b4 353d a1d5 1fbe
00000350: 0094 673d 8e41 a5bd e1f2 12be 2a45 d73d
00000360: e205 99bb 3143 4bbe dcac 1b3d 11c0 693e
00000370: dec8 5bbd e0a7 2abe b957 343e ec0c 11bd
00000380: 0464 b53e 2358 883e 69a7 c3bd 32d2 0fbe
00000390: 0ef3 e3bd 8976 32bc fc5c 803c ab16 49bd
000003a0: 9e08 48bd fc90 14be 82aa f13c 338b 693b
000003b0: 5004 983e b30e f5bd f315 b1bd 4163 adbb
000003c0: 5119 083d 5aea 01be 6649 003e a444 8e3e
000003d0: c746 9f3d 8232 9ebd 89d5 7f3d cec3 e6bd
000003e0: e4b0 b0bd 06f6 d2bc d7ac 813d 3a45 593d
000003f0: 5bf3 0cbd 7b91 e33d fc74 a23d 6705 ea3d
-0.13154098 -0.009730794 0.07453878 -0.011137403 0.11042747 -0.04136762 -0.16950938 0.073413685
0.070459805 0.0021098396 0.11062175 0.07639694 0.0037165298 0.18507452 -0.07957065 0.07492785
-0.0034908904 -0.04029897 -0.026948715 0.037555195 -0.17287707 0.017466757 -0.13702445 0.110553205
-0.10524913 -0.121588744 0.084921606 0.10339846 0.1203524 -0.07324992 -0.20941673 -0.03736919
-0.0885356 0.036726378 -0.050948016 0.13989542 0.07473443 0.07085824 -0.00035902555 0.12430878
-0.21580477 -0.07221758 -0.050831866 0.11836623 -0.1537822 -0.15223202 0.15142259 0.073723815
-0.06880863 -0.112918004 -0.06035977 -0.13290815 -0.037442688 -0.070670314 -0.1575471 0.007931385
0.22453995 -0.24608773 -0.058697168 0.12108676 0.17534998 0.15917246 0.032033578 0.08070102
0.051159244 -0.17374924 -0.086232804 0.13874988 0.050108995 -0.078101985 -0.031887393 0.06908074
0.0866956 0.07654125 0.025079887 -0.008727042 -0.17151238 -0.061365295 0.10870729 -0.1266666
-0.015942968 0.004891181 0.19740136 -0.04480127 -0.081581324 -0.10415765 0.05393539 -0.0049423478
-0.071320236 0.0014040613 0.097115524 -0.09475712 -0.12018067 0.061615743 0.061116423 -0.016597291
-0.10841815 -0.14371109 0.12237832 0.2869595 0.041836306 0.0436417 -0.21212205 0.027497657
0.16390882 0.13453303 -0.019931834 0.024266127 -0.013887241 0.12371745 0.046778526 0.110401124
-0.03652374 0.11339508 -0.10338454 -0.037970908 -0.036424085 0.06436213 0.08523676 -0.19828045
0.06984389 -0.00018939731 -0.11713502 0.25646633 -0.1257293 0.15139219 -0.08945982 -0.23809381
-0.08655209 -0.018837396 -0.060971256 0.07058751 0.1863743 -0.06932531 0.2352836 -0.0868164
0.1868585 0.12880073 -0.13573726 0.25414315 -0.15673313 -0.06091621 0.094272554 -0.09220952
-0.086652555 -0.14337209 -0.10247066 -0.0006377355 -0.13625188 -0.14277002 -0.04814642 0.1003927
-0.24619052 0.03555909 -0.0027323933 -0.0023728586 0.06261499 0.072858855 -0.07746782 0.15371591
-0.0029918745 0.22776343 0.062121563 -0.09975093 0.018322522 0.038989965 -0.093858734 -0.04081967
0.007442492 0.017134117 -0.03634965 0.05868304 -0.09807181 0.011776276 -0.16288017 -0.13108449
0.061459105 -0.09963475 0.2199914 -0.05383322 0.076431386 0.020824851 0.17474276 -0.047639266
-0.039305154 -0.09549989 -0.046984904 0.012523231 -0.19809122 -0.052639052 0.13442005 0.016163688
-0.09397059 -0.05636763 -0.10485173 -0.10009511 -0.14580067 -0.034288175 -0.19636086 0.101650104
0.04513836 -0.13872507 -0.15599214 -0.10980174 -0.1907108 -0.06556204 0.11373 -0.11755318
-0.17828414 0.1822844 0.044361893 -0.15608837 0.05653763 -0.08069144 -0.14350463 0.10511239
-0.0046698907 -0.1984985 0.03800665 0.22827174 -0.05365836 -0.16665602 0.17611589 -0.035412714
0.35427868 0.26629743 -0.09553415 -0.14045027 -0.111303434 -0.010892519 0.015669338 -0.049093883
-0.048836343 -0.14508432 0.02950025 0.0035635948 0.2969079 -0.11965694 -0.086467646 -0.005291373
0.03322727 -0.12687054 0.12528 0.27786744 0.077771716 -0.07724477 0.062459502 -0.112678155
-0.08627489 -0.025752079 0.06331795 0.053044535 -0.03441177 0.111117326 0.07932469 0.11426812

fc3.bias f4 [10]
00000000: 3fa1 9d3c c79a 34bc 4df6 5f3d a537 05be
00000010: a84c eebd 15a1 1abd 7a6d dabd ea10 7abc
00000020: a3be 51bd d95c 8e3d
0.019241927 -0.01102323 0.05467825 -0.13009508 -0.11635715 -0.037751276 -0.10665412 -0.015262822
-0.051207196 0.06951303
