modelMyConNet1.pt (torch, 717647 bytes, 8 tensors)

conv1.weight f4 [14, 1, 5, 5]
0.023370303 -0.20399716 -0.05292158 -0.040005587 0.119675644 -0.32821512 -0.22422187 0.10435595
0.1643715 0.15211391 -0.32499334 0.2724616 0.26593226 0.1706041 -0.20360358 0.19155467
0.29992157 0.2910773 0.018844515 -0.13946252 0.22314276 -0.06435022 -0.17506887 -0.24795744
-0.22824158 0.36414674 0.26332402 0.29524213 0.32575563 0.2381842 -0.00069626607 -0.067498274
0.026016353 -0.08668199 0.30081984 -0.19904922 -0.051098455 -0.024141947 -0.04512108 -0.22111857
0.013128373 0.025393084 -0.21277776 -0.08199879 -0.27602413 -0.27254227 -0.20508228 -0.21518762
-0.20837562 -0.048552778 0.13810124 0.25347498 0.07750316 -0.11125578 -0.24752133 0.06570564
0.1609487 0.07484977 -0.20706196 -0.0037956717 0.083461 0.19176291 -0.1495557 -0.24815056
-0.094854854 0.27950084 -0.17701884 -0.0798477 -0.24039072 -0.16965348 -0.0956927 -0.114406146
-0.22470881 -0.17522217 -0.07800999 0.12842713 0.0014982736 0.002461582 0.20764978 0.30345863
-0.093798086 0.16647407 0.091883466 0.049364313 -0.049149334 -0.17776698 -0.19401918 -0.020307736
-0.20059174 0.054190237 -0.10885186 -0.21759094 -0.23093306 -0.10999484 -0.28222802 -0.012501983
-0.18110576 -0.0791945 -0.22839844 -0.05792748 -0.20847704 -0.1285294 -0.21211885 -0.12234499
0.18989982 -0.059468333 -0.17757104 -0.16987982 0.057242103 0.25339752 -0.09159175 -0.37444758
-0.06867276 0.056454837 0.22325253 -0.19845785 -0.11065262 -0.20869198 0.08322491 0.22908485
-0.047256175 -0.24295747 -0.08259233 -0.010438229 0.13815758 -0.18348917 -0.2925545 -0.3413044
-0.011403536 0.038642667 -0.24975403 -0.22799405 -0.11424329 0.0068946136 0.23966189 -0.039577764
0.08338684 0.19138001 -0.045519963 0.18782932 -0.16641854 0.24729598 0.1271638 -0.032164346
0.18795826 0.18390684 0.15821639 0.3148743 0.04301524 0.03456877 -0.080465496 0.09069243
-0.07486835 0.1267102 -0.07769845 -0.23904559 -0.059126835 0.16925053 -0.14376229 0.17680354
-0.2813461 -0.26792666 0.063908905 0.28018293 0.20253494 -0.23206249 -0.013283672 0.2165954
-0.022919444 -0.009487927 0.13959534 0.09274518 0.23374829 0.1817873 -0.04498782 0.05467937
0.11082345 0.115904756 0.037434082 -0.11911285 -0.034828484 -0.03491511 0.083709046 0.09284543
-0.045213453 0.023564506 0.18554708 0.05651942 -0.15682554 -0.14123298 -0.0238122 0.20621029
0.026444795 -0.12684304 -0.11855792 0.25486624 0.33680123 -0.021712793 -0.28207535 -0.11024728
0.11500647 -0.08549043 0.10526266 -0.11245787 0.0054232227 0.11673934 0.17140733 -0.31834227
-0.023112318 -0.122945726 0.25856903 0.3203707 -0.23054893 -0.24602346 -0.00439437 0.2596587
0.25448525 -0.13272521 0.05573535 -0.22457433 -0.14307317 0.26938462 -0.10228582 0.12566341
-0.058425523 -0.21580409 -0.09930381 0.1300405 -0.08044754 0.017663667 0.15051171 -0.041674297
-0.07235942 -0.06375111 -0.0087927235 -0.016421776 -0.1761766 -0.36805826 -0.2646126 0.060519394
0.09053168 0.32008767 0.10206929 -0.14869212 -0.13315193 0.1854391 0.11672136 0.1766268
0.19599526 0.1613313 0.0741781 0.18067361 -0.0020320122 0.041452877 -0.1191935 0.04261981
00000000: 1473 bf3c a2e4 50be 4cc4 58bd e6dc 23bd
00000010: 8118 f53d d00b a8be 6b9a 65be 93b8 d53d
00000020: 0151 283e c0c3 1b3e 8765 a6be 1680 8b3e
00000030: 4628 883e d7b2 2e3e 757d 50be e826 443e
00000040: 528f 993e 1508 953e d05f 9a3c 43cf 0ebe
00000050: 897f 643e 0cca 83bd 4145 33be 8ee8 7dbe
00000060: 29b8 69be 7171 ba3e 68d2 863e fa29 973e
00000070: 71c9 a63e 8fe6 733e a085 36ba 893c 8abd
00000080: 3f20 d53c 5486 b1bd 0f05 9a3e 8fd3 4bbe
00000090: 9d4c 51bd 55c5 c5bc e2d0 38bd e86c 62be
000000a0: 6318 573c 2805 d03c 6ae2 59be fbee a7bd
000000b0: 0953 8dbe a98a 8bbe 1701 52be 255a 5cbe
000000c0: 6b60 55be 47df 46bd 696a 0d3e 79c7 813e
000000d0: fab9 9e3d 12da e3bd 3b76 7dbe ae90 863d
000000e0: bccf 243e d64a 993d 0d08 54be cec0 78bb
000000f0: 9aed aa3d 7f5d 443e 2125 19be 2e1b 7ebe
00000100: 4343 c2bd bc1a 8f3e 6d44 35be 3187 a3bd
00000110: fc28 76be a4b9 2dbe 89fa c3bd c54d eabd
00000120: 111a 66be 716d 33be b4c3 9fbd 6782 033e
00000130: b861 c43a 7e52 213b 25a2 543e ee5e 9b3e
00000140: 3619 c0bd 2e78 2a3e 662d bc3d 3c32 4a3d
00000150: d050 49bd 8c08 36be f7ac 46be 695c a6bc
00000160: ec67 4dbe 95f6 5d3d b9ed debd 29d0 5ebe
00000170: b779 6cbe fa44 e1bd 3180 90be 1ed5 4cbc
00000180: ca73 39be ba30 a2bd 48e1 69be 5e45 6dbd
00000190: 017b 55be 369d 03be af35 59be 0390 fabd
000001a0: 1975 423e 1195 73bd 2fd5 35be faf4 2dbe
000001b0: b276 6a3d 52bd 813e 7594 bbbd 98b7 bfbe
000001c0: 4ea4 8cbd 303d 673d 509c 643e 8938 4bbe
000001d0: d79d e2bd 5ab3 55be d271 aa3d 3895 6a3e
000001e0: b18f 41bd d8c9 78be 2b26 a9bd 1b05 2bbc
000001f0: 2e79 0d3e 96e4 3bbe b4c9 95be 73bf aebe
00000200: e6d5 3abc c647 1e3d 85bf 7fbe 4677 69be
00000210: 63f8 e9bd 36ec e13b ed69 753e 4b1c 22bd
00000220: b8c6 aa3d 1ff9 433e 2473 3abd 5456 403e
00000230: 9f69 2abe 283b 7d3e 3a37 023e c3be 03bd
00000240: 2178 403e 1352 3c3e 7a03 223e 3437 a13e
00000250: c030 303d fc97 0d3d 18cb a4bd f4bc b93d
00000260: 9454 99bd 52c0 013e 5d20 9fbd 5ec8 74be
00000270: fb2e 72bd 0350 2d3e 6c36 13be fd0b 353e
00000280: 990c 90be af2d 89be ace2 823d 2374 8f3e
00000290: 5265 4f3e caa1 6dbe c2a3 59bc 2fcb 5d3e
000002a0: 8fc1 bbbc 4073 1bbc 15f2 0e3e 2ff1 bd3d
000002b0: b65b 6f3e 7326 3a3e 2645 38bd 7af7 5f3d
000002c0: 68f7 e23d 795f ed3d 7b54 193d 70f1 f3bd
000002d0: 50a8 0ebd 2503 0fbd a66f ab3d bf25 be3d
000002e0: be31 39bd 5a0a c13c 0e00 3e3e e880 673d
000002f0: e096 20be 619f 10be ce11 c3bc ca28 533e
00000300: c1a2 d83c 24e3 01be 7fce f2bd d47d 823e
00000310: 3671 ac3e 07df b1bc 2e6c 90be 53c9 e1bd
00000320: 8388 eb3d 9b15 afbd f393 d73d 5050 e6bd
00000330: 4ab5 b13b 0915 ef3d 6785 2f3e c2fd a2be
00000340: 0b56 bdbc f8ca fbbd 2963 843e a107 a43e
00000350: 0515 6cbe 93ed 7bbe a6fe 8fbb fcf1 843e
00000360: e44b 823e 1ee9 07be c04a 643d d0f6 65be
00000370: c681 12be c8ec 893e 3a7b d1bd e9ad 003e
00000380: 9a4f 6fbd bffb 5cbe cc5f cbbd 5629 053e
00000390: aec1 a4bd 65b3 903c be1f 1a3e abb2 2abd
000003a0: 2d31 94bd f18f 82bd 5b0f 10bc f686 86bc
000003b0: a367 34be 2272 bcbe 4d7b 87be 2fe3 773d
000003c0: ac68 b93d 88e2 a33e b409 d13d bf42 18be
000003d0: fb58 08be bfe3 3d3e 9c0b ef3d a8dd 343e
000003e0: fbb2 483e 0834 253e b0ea 973d 8102 393e
000003f0: 822b 05bb 7eca 293d b91b f4bd 1c92 2e3d

conv1.bias f4 [14]
-0.20256092 -0.106449276 -0.17792982 0.18456239 -0.28188396 -0.10300994 -0.15670796 -0.22517864
-0.018820213 0.13873585 0.05313069 0.16011816 -0.08245244 0.124624364
00000000: 216c 4fbe 1402 dabd 3c33 36be ecfd 3c3e
00000010: 1853 90be e0f6 d2bd 0d78 20be 3b95 66be
00000020: d92c 9abc c510 0e3e 919f 593d 04f6 233e
00000030: d3dc a8bd 0f3b ff3d

conv2.weight f4 [7, 14, 5, 5]
0.0129222805 0.027719442 -0.03226924 0.014641774 0.03806578 -0.05635333 -0.033713292 -0.049685396
0.023788497 0.046330377 -0.066675 -0.054296833 -0.006583152 -0.05509538 0.0011067967 -0.08306184
-0.06829891 -0.14723858 -0.061940253 -0.046297975 -0.14157295 -0.15129131 -0.14327087 -0.06909712
0.0154995285 -0.08645243 -0.09658853 -0.10323797 -0.105708994 -0.046388622 -0.047648035 -0.09447572
-0.11910139 -0.10833372 -0.12532355 0.106127456 0.050055243 -0.033253506 0.00021090296 -0.039751776
0.12173091 0.12682675 0.06682888 0.040534914 0.06712824 0.08809082 0.08440028 0.024387157
0.065524325 0.042206727 -0.07369441 -0.07077112 -0.06745427 -0.12408329 -0.10296797 -0.084981166
-0.046039883 -0.082955725 -0.13535637 -0.12514374 -0.04967603 -0.04886998 -0.05233317 -0.016981611
-0.027015632 -0.032160442 -0.044099994 0.028798502 -0.020642104 0.054262158 0.043819353 0.036244825
0.05597289 0.056082528 0.07275717 -0.055353474 -0.09222791 -0.09586696 -0.05210152 -0.035909224
0.03338081 0.005921564 -0.0364391 -0.09053724 -0.036896687 0.078055374 0.05946532 -0.0118748145
-0.02771901 0.051917907 0.07558262 0.10516946 0.04464822 0.052491765 0.037002478 0.14211208
0.11825523 0.09649785 0.037599646 0.015536359 -0.0304609 -0.022132859 -0.09948478 -0.049019348
-0.052273687 -0.01433518 -0.038787942 -0.07766422 -0.074502334 -0.078869104 0.03644381 -0.0303102
-0.054031886 -0.065501556 -0.09260605 -0.016373098 0.01687075 -0.013422398 -0.053809356 -0.04209561
-0.011987895 -0.035899315 -0.016730882 -0.01940629 -0.029161748 -0.00535878 -0.055325214 -0.07565253
-0.019695455 -0.02305454 -0.01735663 -0.07939185 -0.037466656 -0.0277862 0.08636314 -0.105078824
-0.08566607 -0.075988635 -0.04896107 0.06132975 -0.1631011 -0.13626313 -0.115921475 -0.08248678
-0.014846561 -0.13863379 -0.07324669 -0.07952389 -0.09709388 -0.10540851 -0.024776893 -0.036528677
-0.037106972 -0.042496327 -0.010987892 0.013031371 -0.050412554 0.01794745 0.01735446 0.017025637
-0.096368335 -0.026755797 -0.021022392 -0.054472018 -0.033916574 -0.0966764 -0.0920816 -0.033307742
-0.016579123 -0.00434172 -0.112361915 -0.04723482 -0.0104174 0.07141896 0.07413174 -0.018024746
0.043871008 -0.020205714 -0.022673726 -0.009624796 -0.007746894 -0.0013002186 -0.0036448769 -0.0017113129
-0.059566434 -0.058439955 -0.034352694 -0.10076471 -0.11033006 -0.09567718 -0.038713433 -0.046877466
-0.12011688 -0.09453181 -0.07103404 -0.052063353 -0.1162002 -0.10472234 -0.07962642 0.07409047
0.032692507 0.08364705 0.047237605 -0.006445345 0.004644149 0.093118146 0.040742345 0.08645512
0.07752137 0.035760034 0.009260337 0.0061545116 -0.0049482686 -0.0072955834 -0.0016587999 -0.05226515
-0.11300183 -0.036081824 -0.035365798 0.006680605 -0.04006302 -0.063702404 -0.10072702 -0.0896266
-0.05987706 0.048404634 0.06757509 0.11165077 0.082000464 0.100759566 0.056778092 0.081947364
0.09040974 0.095409915 0.114517234 -0.06395553 -0.0178679 -0.017594699 -0.0012021415 0.008030688
-0.118779406 -0.030472323 -0.091297075 -0.06309908 -0.09748573 -0.019678874 -0.027620768 -0.07041806
-0.11357164 -0.12432842 -0.0062867417 0.0060658623 -0.06966816 -0.065440044 -0.14411868 0.055898514
00000000: f9b7 533c e213 e33c c02c 04bd 0de4 6f3c
00000010: ddea 1b3d c0d2 66bd f316 0abd ea82 4bbd
00000020: 18e0 c23c ecc4 3d3d e78c 88bd 5b66 5ebd
00000030: 7bb7 d7bb b1ab 61bd ef11 913a 531c aabd
00000040: 4de0 8bbd b6c5 16be 10b5 7dbd f2a2 3dbd
00000050: 80f8 10be 1cec 1abe 99b5 12be ca82 8dbd
00000060: bcf1 7d3c f90d b1bd 35d0 c5bd 6e6e d3bd
00000070: f57d d8bd ff01 3ebd 962a 43bd 7c7c c1bd
00000080: 6eeb f3bd 12de ddbd d154 00be 5a59 d93d
00000090: ba06 4d3d d434 08bd d525 5d39 c2d2 22bd
000000a0: 0e4e f93d dfde 013e 94dd 883d f007 263d
000000b0: 887a 893d f668 b43d 0eda ac3d 93c7 c73c
000000c0: 9e31 863d f6e0 2c3d 18ed 96bd 73f0 90bd
000000d0: 7725 8abd 611f febd dfe0 d2bd 9b0a aebd
000000e0: 5194 3cbd b1e4 a9bd dc9a 0abe ae25 00be
000000f0: 1879 4bbd e32b 48bd 4e5b 56bd 051d 8bbc
00000100: e34f ddbc abba 03bd 32a2 34bd d6ea eb3c
00000110: a119 a9bc ff41 5e3d ec7b 333d 7475 143d
00000120: d443 653d cbb6 653d b601 953d 53ba 62bd
00000130: fde1 bcbd e655 c4bd 6768 55bd 8d15 13bd
00000140: 51ba 083d ae09 c23b 2a41 15bd 976b b9bd
00000150: fb20 17bd 7fdb 9f3d e891 733d 958e 42bc
00000160: fa12 e3bc dfa7 543d 10cb 9a3d 1663 d73d
00000170: 0de1 363d 9b01 573d e98f 173d d485 113e
00000180: cc2f f23d aaa0 c53d 1602 1a3d 368c 7e3c
00000190: 2389 f9bc f84f b5bc adbe cbbd 83c8 48bd
000001a0: ef1c 56bd 1ade 6abc 1be0 1ebd 6b0e 9fbd
000001b0: ae94 98bd 2086 a1bd 1b46 153d 194d f8bc
000001c0: 8a50 5dbd ae25 86bd 3ea8 bdbd e020 86bc
000001d0: 8734 8a3c 9ee9 5bbc 3367 5cbd 726c 2cbd
000001e0: e068 44bc 290b 13bd 340f 89bc f1f9 9ebc
000001f0: 9ee4 eebc b498 afbb b19c 62bd b7ef 9abd
00000200: 5d58 a1bc e0dc bcbc 7e2f 8ebc 3298 a2bd
00000210: a376 19bd e39f e3bc 28df b03d 9133 d7bd
00000220: b171 afbd ee9f 9bbd 678b 48bd e734 7b3d
00000230: fa03 27be 9088 0bbe 3d68 edbd d4ee a8bd
00000240: fd3e 73bc 04f6 0dbe 5c02 96bd 6cdd a2bd
00000250: 28d9 c6bd 6be0 d7bd e9f8 cabc 189f 15bd
00000260: 7bfd 17bd a110 2ebd 8f06 34bc 8881 553c
00000270: 657d 4ebd 8806 933c f12a 8e3c 5979 8b3c
00000280: c35c c5bd f92e dbbc 2737 acbc 0d1e 5fbd
00000290: 1bec 0abd 47fe c5bd 4795 bcbd b36d 08bd
000002a0: f1d0 87bc fd44 8ebb 011e e6bd 4c79 41bd
000002b0: bead 2abc 1b44 923d 62d2 973d a2a8 93bc
000002c0: 16b2 333d 7486 a5bc 40be b9bc 52b1 1dbc
000002d0: a8d9 fdbb 196c aaba e3de 6ebb 224e e0ba
000002e0: effb 73bd bc5e 6fbd 69b5 0cbd ba5d cebd
000002f0: baf4 e1bd 66f2 c3bd fa91 1ebd 9602 40bd
00000300: d7ff f5bd e599 c1bd 4b7a 91bd 6240 55bd
00000310: 5ffa edbd ab78 d6bd 2d13 a3bd bfbc 973d
00000320: 94e8 053d 254f ab3d 387c 413d 7933 d3bb
00000330: f22d 983b bab4 be3d 72e1 263d 620f b13d
00000340: 86c3 9e3d 1d79 123d abb8 173c c9ab c93b
00000350: 1625 a2bb ca0f efbb 176c d9ba fb13 56bd
00000360: 816d e7bd 89ca 13bd badb 10bd fae8 da3b
00000370: 1f19 24bd 6876 82bd f849 cebd 278e b7bd
00000380: a641 75bd f043 463d cf64 8a3d 29a9 e43d
00000390: dcef a73d 085b ce3d 2590 683d 05d4 a73d
000003a0: be28 b93d 4666 c33d 0388 ea3d 1efb 82bd
000003b0: b45f 92bc c222 90bc 2d91 9dba 2693 033c
000003c0: 9e42 f3bd 18a1 f9bc f6f9 babd 173a 81bd
000003d0: 99a6 c7bd 9735 a1bc f344 e2bc 5837 90bd
000003e0: 3f98 e8bd e69f febd 0301 cebb 24c4 c63b
000003f0: 2eae 8ebd 6e05 86bd d993 13be d7f5 643d

conv2.bias f4 [7]
0.04095106 0.04902294 0.0019079668 0.04309153 0.13550216 0.07044853 0.0057775797
00000000: 4cbc 273d 47cc 483d be14 fa3a bf80 303d
00000010: 14c1 0a3e 5247 903d da51 bd3b

dense1.weight f4 [32, 5488]
-0.0053251125 0.012325304 0.00889967 -0.009078568 0.0044772835 -0.007097214 -0.012496309 -0.0138586275
0.0005780685 0.0087186955 0.006819525 0.0073609683 -0.01497109 -0.0001370837 0.015979165 0.010732959
0.008349046 -0.0048130387 -0.0019236567 -0.00238901 -0.0077361427 -0.0012013508 -0.010436607 0.0019957002
0.0053760256 0.0033280777 -0.013757309 -0.011699669 -0.011660938 -0.011790423 0.008073809 -0.006130759
0.008933636 0.002472058 0.0104165375 -0.0025704617 0.010859411 -0.009355516 0.010059837 0.011012926
0.010587901 -0.012890998 -0.0019267612 -0.004456073 -0.0045484994 0.0032852625 -0.0030293036 0.0049920413
0.008668934 -0.0011272202 0.0013039117 -0.000373468 -0.0078045633 0.0074434187 0.0015305388 0.008431025
0.002611107 0.00466862 -0.013102808 0.0033958051 0.00025449338 0.009548465 0.0030129324 0.0076452605
-0.0049749943 -0.0073039997 -0.009022565 -0.008653281 -0.02473093 -0.020671358 -0.015838785 -0.014435443
0.009585458 0.0013526048 0.005213185 -0.009651583 0.002061427 0.006213562 0.007232356 0.006850864
0.0106222965 -0.004850761 -0.0077121793 -0.0015676115 -0.01120791 0.008191981 0.012923595 -0.009663577
-0.0005785137 -0.0022479119 -0.015039114 -0.014872621 -0.0020836822 -0.016195264 -0.036580574 -0.03533552
-0.057156973 -0.056898396 -0.04847632 -0.03386744 -0.004564375 -0.012266347 0.010407221 0.008712575
0.0043540634 -0.0012405936 -0.0067838365 -0.0058152643 -0.0013290656 -0.00090714404 -0.0002105992 -0.0127655035
0.0067904396 0.0052345716 0.008099691 0.0020632488 0.0012652628 -0.014676682 -0.015213075 -0.0045711035
-0.030997332 -0.030879833 -0.04825125 -0.054709088 -0.03627689 -0.050860874 -0.013074077 0.007154515
0.014964293 0.008801498 -0.011912671 -0.009209001 -0.0069578937 -0.003312882 0.021416204 0.018546876
0.00023269354 0.0028996873 -6.217427e-05 -0.010017064 0.011529032 7.855444e-05 -0.003865971 -0.0042264564
-0.005579636 0.001249518 -0.018732628 -0.001370595 -0.0147618605 -0.02102723 -0.017053634 -0.02094754
-0.023215748 -0.0062964684 -0.014138938 0.011051126 0.02724283 0.029613232 0.018429939 0.009672285
-0.002838574 0.00044642657 0.024965221 0.02130664 0.012724768 -0.004755156 0.012473787 0.0046738647
-0.01171992 0.0036395339 0.0025741328 0.007529213 -0.013433393 -0.010870392 -0.0070042377 -0.009527934
0.0041216826 -0.02183264 -0.007153264 -0.033383958 -0.01366245 0.006086517 0.020178527 0.037158523
0.047778044 0.044233546 0.036357857 0.024698393 -0.00676237 0.0058648475 -0.006680786 0.01940854
0.020722264 0.014264572 0.004229318 -0.005375955 0.012874096 -0.0052546193 0.0028700738 -0.0015499548
-0.017925482 -0.007663478 -0.010138377 -0.012679265 -0.007829155 -0.0051108315 -0.013882956 -0.005360518
-0.0061724996 0.009045174 0.024615018 0.034710687 0.03459111 0.046022344 0.030701661 0.013304478
0.0022465778 0.011449173 0.0143354675 0.015122672 -0.0038414102 0.0043205116 0.0035016122 0.014363525
-0.014231045 -0.0060911016 0.0010534123 -0.0022019653 -0.022139616 -0.01441323 -0.012740629 -0.029484922
-0.020043876 -0.024726942 -0.015282348 -0.014578559 -0.002065976 -0.0007809275 0.021558465 0.010451658
0.023945078 0.018444771 0.019121487 0.013939123 0.009429697 0.02713299 0.031459365 0.01516319
0.0091070095 -0.0004541552 0.008980975 -0.00587343 -0.0049667754 -0.0051968866 -0.002122737 -0.0059045907
00000000: 487e aebb 12f0 493c eccf 113c 46be 14bc
00000010: 2db6 923b bf8f e8bb 52bd 4cbc 4c0f 63bc
00000020: 8589 173a dcd8 0e3c 5276 df3b 4734 f13b
00000030: 4d49 75bc 20be 0fb9 bde6 823c 4bd9 2f3c
00000040: 70ca 083c b2b6 9dbb 3523 fcba f090 1cbb
00000050: 787f fdbb a576 9dba 4dfe 2abc 4bca 023b
00000060: 5f29 b03b e11b 5a3b 5666 61bc f8af 3fbc
00000070: 850d 3fbc 9e2c 41bc 0248 043c 89e4 c8bb
00000080: 635e 123c 4002 223b 20aa 2a3c 3175 28bb
00000090: aceb 313c e147 19bc 04d2 243c 8f6f 343c
000000a0: e078 2d3c c434 53bc 618b fcba 4004 92bb
000000b0: 940b 95bb 8f4d 573b 4887 46bb 4794 a33b
000000c0: 2508 0e3c 3cbf 93ba 04e8 aa3a 07ce c3b9
000000d0: 6cbd ffbb ece7 f33b 5c9c c83a 4822 0a3c
000000e0: 1b1f 2b3b 39fb 983b 29ad 56bc 288c 5e3b
000000f0: 866d 8539 2a71 1c3c 9e74 453b 1885 fa3b
00000100: 4705 a3bb 6456 efbb 61d3 13bc 7ec6 0dbc
00000110: 8598 cabc fb56 a9bc 57c0 81bc a382 6cbc
00000120: 530c 1d3c e349 b13a 5ed3 aa3b ac21 1ebc
00000130: 0219 073b 239b cb3b 66fd ec3b 367d e03b
00000140: 2409 2e3c 22f3 9ebb 73b6 fcbb 5078 cdba
00000150: 62a1 37bc a937 063c 7cbd 533c fb53 1ebc
00000160: 66a7 17ba b451 13bb 9e66 76bc 4bac 73bc
00000170: 638e 08bb eeab 84bc 83d5 15bd fabb 10bd
00000180: 6e1d 6abd 4b0e 69bd 1b8f 46bd 96b8 0abd
00000190: c190 95bb caf8 48bc 0c83 2a3c 30bf 0e3c
000001a0: 88ac 8e3b 6a9b a2ba f24a debb f98d bebb
000001b0: 0b34 aeba 68cd 6dba 4bd4 5cb9 6726 51bc
000001c0: 5682 de3b c586 ab3b 91b4 043c 9237 073b
000001d0: 2dd7 a53a 7776 70bc 4340 79bc 32c9 95bb
000001e0: 1eee fdbc b4f7 fcbc 1aa3 45bd a316 60bd
000001f0: 1497 14bd 7e53 50bd a734 56bc 6c70 ea3b
00000200: cb2c 753c 2934 103c 5d2d 43bc 5ae1 16bc
00000210: 0bff e3bb f01c 59bb 0971 af3c 9eef 973c
00000220: 32ff 7339 ae08 3e3b 8f63 82b8 9d1e 24bc
00000230: 44e4 3c3c 98bd a438 3b5c 7dbb 167e 8abb
00000240: 61d5 b6bb dec6 a33a 2b75 99bc 89a5 b3ba
00000250: bbdb 71bc 4c41 acbc 10b4 8bbc 2d9a abbc
00000260: f42e bebc 9b52 cebb 01a7 67bc c80f 353c
00000270: 5b2c df3c 7397 f23c 62fa 963c 8178 1e3c
00000280: 5e07 3abb 5c0e ea39 dd83 cc3c 438b ae3c
00000290: 8c7b 503c 24d1 9bbb db5e 4c3c 3827 993b
000002a0: e804 40bc 3f85 6e3b c8b2 283b 9eb7 f63b
000002b0: bc17 5cbc bb19 32bc ce83 e5bb 0d1b 1cbc
000002c0: 2e0f 873b 5dda b2bc ed65 eabb 9ebd 08bd
000002d0: 78d8 5fbc 6871 c73b 704d a53c 8933 183d
000002e0: e9b2 433d 3c2e 353d faeb 143d 4954 ca3c
000002f0: df96 ddbb e82d c03b 7fea dabb a9fe 9e3c
00000300: bdc1 a93c f4b5 693c 1796 8a3b c728 b0bb
00000310: dfed 523c f12e acbb d917 3c3b da27 cbba
00000320: 76d8 92bc ea1d fbbb 6f1b 26bc b1bc 4fbc
00000330: db45 00bc c378 a7bb 5675 63bc 49a7 afbb
00000340: ae42 cabb 3632 143c 6fa5 c93c cb2c 0e3d
00000350: 68af 0d3d ed81 3c3d 0d82 fb3c 06fb 593c
00000360: 523b 133b 5095 3b3c 4fdf 6a3c 15c5 773c
00000370: 2bc0 7bbb 1493 8d3b 4e7b 653b fe54 6b3c
00000380: 5429 69bc dd97 c7bb a712 8a3a d94e 10bb
00000390: 245e b5bc 7825 6cbc 12be 50bc 5d8a f1bc
000003a0: 0e33 a4bc 2890 cabc d062 7abc e9da 6ebc
000003b0: 5365 07bb 28b7 4cba 619b b03c 6e3d 2b3c
000003c0: 7828 c43c 7d19 973c aaa4 9c3c eb60 643c
000003d0: 047f 1a3c 0146 de3c 89db 003d 076f 783c
000003e0: 9135 153c ae1b eeb9 f024 133c e775 c0bb
000003f0: 55c0 a2bb a54a aabb 9e1d 0bbb 4c7b c1bb

dense1.bias f4 [32]
0.014430652 -0.014841312 -0.012726453 -0.0030649784 0.023006396 0.0035515507 -0.021084864 0.014206767
0.009351888 -0.0012101028 0.008747535 0.0059765084 0.012469935 0.0027151094 0.0044310745 0.01281564
0.0043032956 0.005277425 0.0058983923 0.0019697312 -0.007542684 -0.0016049781 0.004297691 0.0071594757
0.013256886 0.002650534 0.02317532 -0.0020079315 0.0016309333 0.009501737 0.002544735 0.016327344
00000000: 8b6e 6c3c f928 73bc 9d82 50bc cedd 48bb
00000010: e977 bc3c 22c1 683b 2aba acbc 80c3 683c
00000020: a938 193c 509c 9eba d251 0f3c 96d6 c33b
00000030: b34e 4c3c faef 313b 8c32 913b b1f8 513c
00000040: a902 8d3b 40ee ac3b 4d47 c13b 9b16 013b
00000050: 9f28 f7bb 215e d2ba a5d3 8c3b 099a ea3b
00000060: 6933 593c 95b4 2d3b 2bda bd3c 8097 03bb
00000070: 0ac5 d53a 2cad 1b3c 92c5 263b ecc0 853c

dense2.weight f4 [10, 32]
0.07829106 0.25060755 -0.19796313 -0.077994786 0.149354 -0.23315461 -0.104919046 -0.25637957
-0.083332784 0.19936332 0.24298778 0.1696836 -0.07806057 -0.20543617 -0.20703585 -0.25172332
0.21465799 -0.27259952 -0.26334423 0.31774688 -0.076568276 -0.13842857 -0.15931614 0.28635007
-0.2766905 -0.28650826 -0.029054655 0.133294 -0.17494594 -0.20892608 -0.25109327 0.19805913
0.25356206 0.16254444 -0.20231014 0.08101039 -0.17180686 -0.044975 0.18686208 0.2067815
-0.12245648 0.15182419 -0.18914011 -0.28518876 0.31878385 0.17157139 0.1711615 0.18139163
-0.25087142 0.20118667 -0.07847299 -0.027520599 0.18008983 -0.13771759 0.15289375 -0.10724093
-0.0427902 0.15495926 -0.0858961 0.42740068 -0.2528992 0.18374087 -0.3170494 -0.13802858
-0.19650869 -0.19195378 0.096306086 0.038271733 -0.20251232 -0.17747861 -0.14483503 -0.24634898
-0.11256825 0.1657916 0.2038355 -0.029188072 0.302888 0.19716343 -0.15820806 -0.19251125
0.15893456 0.22419013 0.21812373 0.14378433 0.23641056 0.24227192 0.1989044 0.16335882
-0.13743769 -0.2552874 0.208386 -0.124250576 0.1903419 -0.27021965 -0.19041298 -0.20984565
-0.16319598 -0.17381673 0.22130844 -0.021671563 -0.25054362 0.15871835 -0.18911375 0.06979117
-0.10423811 0.12500422 0.032660127 0.1842589 -0.17238599 -0.036927585 -0.10570912 0.3155229
-0.17273095 0.24938475 -0.06335955 -0.11872525 -0.006622292 0.24544027 0.19610688 -0.04297407
0.20949517 -0.26490006 -0.011898878 -0.13987274 -0.027871061 0.23846252 0.19023183 -0.18102475
-0.097049944 0.107601985 0.23736712 0.30302757 -0.26633418 -0.19125536 0.15034066 0.010333501
0.052223906 -0.24484791 -0.23773693 -0.32404184 0.0021041085 0.116794094 0.22605722 -0.2802007
0.08430103 -0.22524974 -0.06579991 -0.0402729 0.19971734 -0.28231758 -0.15600716 0.2738124
0.22141837 0.18247385 0.20724574 -0.012444621 0.096840054 -0.124461375 -0.10301774 0.15957896
0.31887877 -0.22184543 -0.0990091 -0.12048573 0.11666172 0.059368394 -0.12578955 -0.08472411
0.2614477 -0.19366229 -0.061626386 0.17304441 0.068823665 -0.08573048 -0.03810201 0.28357294
-0.17712075 -0.162379 0.08390548 0.2931295 -0.29365113 -0.08498949 -0.25738767 0.051638864
0.18755488 0.12989585 0.21525295 -0.07752503 0.1854197 0.24009895 0.189486 -0.16836876
0.33039665 0.1676583 -0.063930355 -0.07144022 0.08657772 -0.20279033 0.1716603 -0.29279152
0.28159016 -0.28188512 -0.17585488 0.1827451 0.33904886 -0.24469188 0.25636765 -0.15665361
0.17366855 -0.028200835 0.03944164 0.05535416 -0.30290368 -0.25914016 -0.17791823 0.30564907
-0.34038872 -0.27711004 -0.14411119 0.045475293 0.24422032 -0.19210571 -0.11732052 -0.2997511
-0.13519388 -0.22222151 0.021313647 0.3705888 0.092997916 0.21431018 -0.06166023 0.25805366
0.08500698 0.12966438 0.16542743 -0.36146355 -0.0025241126 0.19674829 -0.22489618 -0.18061277
-0.30671656 0.22625922 0.21527722 -0.02030365 -0.055763505 0.018608507 -0.033427227 -0.118787415
0.2147045 -0.01996851 -0.07195469 -0.0380772 -0.23566133 -0.11977509 -0.25653133 0.17988983
00000000: 1057 a03d a24f 803e d9b6 4abe bbbb 9fbd
00000010: 41f0 183e 15c0 6ebe ccdf d6bd 2f44 83be
00000020: 61aa aabd e625 4c3e cad1 783e 8ac1 2d3e
00000030: 38de 9fbd dc5d 52be 3501 54be e1e1 80be
00000040: 4ecf 5b3e 2a92 8bbe 0ed5 86be b8af a23e
00000050: d4cf 9cbd 38c0 0dbe c523 23be 7a9c 923e
00000060: 61aa 8dbe 36b1 92be 0704 eebc 397e 083e
00000070: 0725 33be b8f0 55be 4c8f 80be 03d0 4a3e
00000080: e3d2 813e 0d72 263e 642a 4fbe c6e8 a53d
00000090: 23ee 2fbe b537 38bd c658 3f3e 88be 533e
000000a0: 77ca fabd cd77 1b3e f2ad 41be 4304 92be
000000b0: a337 a33e 69b0 2f3e f644 2f3e babe 393e
000000c0: 3872 80be e103 4e3e 72b6 a0bd e172 e1bc
000000d0: 7869 383e d705 0dbe 2e90 1c3e 22a1 dbbd
000000e0: c744 2fbd a4ad 1e3e 4bea afbd 43d4 da3e
000000f0: 017c 81be 9126 3c3e 4d54 a2be 5d57 0dbe
00000100: 9339 49be 888f 44be 203c c53d d2c2 1c3d
00000110: 645f 4fbe f4bc 35be a24f 14be e842 7cbe
00000120: 2f8a e6bd 46c5 293e 41ba 503e d31b efbc
00000130: 2314 9b3e 36e5 493e 4b01 22be ab21 45be
00000140: bebf 223e 1992 653e d45b 5f3e 333c 133e
00000150: 9c15 723e 2116 783e 98ad 4b3e 8947 273e
00000160: 77bc 0cbe 08b5 82be 2463 553e 1677 febd
00000170: fde8 423e 3b5a 8abe 9ffb 42be c7e1 56be
00000180: d91c 27be 03fd 31be ae9e 623e 9088 b1bc
00000190: 4147 80be 1087 223e 09a7 41be acee 8e3d
000001a0: ca7a d5bd 1b01 003e a0c6 053d 5dae 3c3e
000001b0: f485 30be 6141 17bd 067e d8bd 388c a13e
000001c0: 62e0 30be b75e 7f3e a7c2 81bd 3926 f3bd
000001d0: d0ff d8bb b254 7b3e 3ed0 483e 9405 30bd
000001e0: e785 563e fba0 87be 83f3 42bc cd3a 0fbe
000001f0: da51 e4bc 852f 743e 22cc 423e 8d5e 39be
00000200: 1fc2 c6bd 6e5e dc3d 5e10 733e 6e26 9b3e
00000210: f45c 88be 72d8 43be e7f2 193e d84d 293c
00000220: bce8 553d 69b9 7abe 4f71 73be d0e8 a5be
00000230: 15e5 093b be31 ef3d 8b7b 673e 7776 8fbe
00000240: 05a6 ac3d dea7 66be 1ac2 86bd 32f5 24bd
00000250: b482 4c3e ee8b 90be 57c0 1fbe 2431 8c3e
00000260: 7fbb 623e 6dda 3a3e 3a38 543e 86e4 4bbc
00000270: 1454 c63d 9be5 febd f7fa d2bd ab68 233e
00000280: 1444 a33e 732b 63be 48c5 cabd 39c1 f6bd
00000290: 57ec ee3d 462c 733d face 00be d683 adbd
000002a0: 79dc 853e 684f 46be f36b 7cbd 8e32 313e
000002b0: 6cf3 8c3d 7693 afbd da10 1cbd 7930 913e
000002c0: 245f 35be ae46 26be a3d6 ab3d 1215 963e
000002d0: 7159 96be f80e aebd 51c8 83be 4683 533d
000002e0: 630e 403e 6b03 053e 456b 5c3e 71c5 9ebd
000002f0: a9de 3d3e 80dc 753e 9e08 423e dc68 2cbe
00000300: c029 a93e 9eae 2b3e ebed 82bd 404f 92bd
00000310: a94f b13d 45a8 4fbe b8c7 2f3e c5e8 95be
00000320: 962c 903e 3f53 90be 4d13 34be 8821 3b3e
00000330: d097 ad3e 8290 7abe 9f42 833e ce69 20be
00000340: 2bd6 313e 7005 e7bc 8f8d 213d 0bbb 623d
00000350: 3116 9bbe 05ae 84be 3230 36be 097e 9c3e
00000360: 6e47 aebe 5ee1 8dbe e291 13be 4d44 3a3d
00000370: e414 7a3e 5cb7 44be be45 f0bd fa78 99be
00000380: 4470 0abe 098e 63be f599 ae3c d1bd bd3e
00000390: b175 be3d 2174 5b3e 708f 7cbd 9c1f 843e
000003a0: 2418 ae3d bdc6 043e cf65 293e c011 b9be
000003b0: 956b 25bb 6278 493e 2f4b 66be 8ef2 38be
000003c0: f409 9dbe 7fb0 673e a271 5c3e d753 a6bc
000003d0: 4668 64bd de70 983c fdea 08bd d146 f3bd
000003e0: 7fdb 5b3e 0095 a3bc fb5c 93bd d7f6 1bbd
000003f0: 3451 71be a44c f5bd 1358 83be 0a35 383e

dense2.bias f4 [10]
0.08475592 0.044567943 0.080950856 0.1350357 0.052312315 -0.057739764 -0.053018965 0.05740325
0.20695795 -0.038383882
00000000: 8394 ad3d e08c 363d 90c9 a53d cc46 0a3e
00000010: 7045 563d 8880 6cbd 6a2a 59bd ac1f 6b3d
00000020: c9ec 533e 6b38 1dbd
