modelV1.pt (torch, 717647 bytes, 8 tensors)

conv1.weight f4 [14, 1, 5, 5]
-0.1776105 -0.25972617 -0.18016665 -0.073916845 0.081317805 -0.1551399 0.11088198 0.17737088
0.19830097 -0.06588483 0.07142582 -0.043091115 0.18331708 0.2040985 0.18041946 0.23524304
0.24662021 0.2504061 0.1922347 0.16366088 -0.23968561 -0.33217332 -0.2211538 0.008189686
0.053529795 0.022384727 -0.056028925 -0.29306972 -0.12984675 -0.135069 0.025533304 0.055148337
0.03332293 -0.31612706 -0.32418865 0.07596054 0.31632653 0.29448017 -0.035535716 -0.15896909
0.0003045696 -0.05005461 0.3331293 0.1569855 0.15978834 -0.31947887 -0.07466533 0.1434111
-0.043762125 0.26084003 -0.13415927 -0.24150853 -0.15221342 -0.098215625 0.06429228 -0.27318302
-0.19903047 -0.27111775 -0.072461724 0.061677348 -0.21922682 -0.17492184 0.14796998 0.115177386
0.054723855 0.08257821 0.17306861 0.12071154 0.3070191 0.237554 0.04971521 0.27960992
0.015597149 0.15799992 0.21020326 -0.052304033 -0.2251584 -0.11740365 -0.107025735 -0.08149777
-0.1713267 -0.2799487 -0.34279245 -0.076763585 -0.13757414 -0.21176691 -0.23825014 -0.19441456
-0.026513442 0.20893295 -0.19910894 0.12403683 -0.10115265 0.24624634 0.20017453 0.06303394
0.10933187 0.3090257 0.32060328 0.1339821 0.009291878 -0.106350325 -0.03864616 -0.34688172
-0.23015332 0.0035955994 -0.19395733 -0.1444308 -0.16485356 -0.23014468 0.17137645 0.26938283
0.13128461 0.20270458 0.17082009 0.20182858 0.09569927 0.13427745 0.046614192 0.05053575
-0.004630487 0.017968914 0.12462373 0.09093192 0.12764245 0.081669725 -0.04363479 -0.14766005
0.07900631 -0.15585217 0.1975315 0.06046534 -0.07336656 -0.26646525 -0.13792609 0.030369274
0.23208144 -0.062475685 -0.2893551 -0.25609434 0.33949015 0.36157012 0.15402374 -0.27552557
0.007572777 0.30025542 0.27437523 0.16544598 -0.1728056 0.027445279 -0.10300929 -0.20676664
0.07594491 0.07355314 0.01884816 -0.19178373 -0.06083177 -0.0025963578 0.060610842 0.12765211
-0.09272022 -0.19408971 -0.09933331 0.05919196 -0.17089227 -0.028798847 -0.1494045 -0.008182548
-0.2366918 -0.20099108 -0.16301337 -0.1446483 -0.21182501 -0.10072053 -0.017096298 -0.06748728
0.014166373 -0.0346483 0.22198029 0.021798795 0.20123024 0.2010552 0.0728831 0.21484211
0.31435183 -0.19443172 -0.25971064 0.019137373 0.046980005 0.16100071 -0.12051797 -0.111494154
0.0758602 0.20764905 -0.08848943 -0.060159158 -0.13350388 -0.09666049 -0.14260876 0.14127843
0.14457926 0.01294695 0.14811908 -0.16367352 0.20180857 0.1638595 0.10641616 -0.048320018
0.13266616 -0.089791805 0.26053643 0.14845526 0.2669763 0.1196709 -0.115665264 -0.043700814
0.19932209 0.0011397388 -0.28691605 -0.0815567 0.09474206 0.10449053 -0.19731127 -0.19530655
0.137429 -0.11845086 -0.2616884 -0.27278504 -0.12179377 -0.017846597 -0.015410743 -0.022172116
0.18879089 0.055360217 0.18950102 -0.04948634 0.3688104 0.21509817 0.062924534 0.24412084
0.29130098 0.3540397 0.13801053 0.0053924113 -0.06504904 -0.23281156 -0.012461386 -0.15125974
-0.052000493 -0.3476349 0.2722177 -0.100169115 -0.12546267 -0.098892525 -0.22024632 0.18196031
00000000: 87df 35be d4fa 84be 9b7d 38be b761 97bd
00000010: f389 a63d fedc 1ebe 1716 e33d b6a0 353e
00000020: 690f 4b3e a0ee 86bd b347 923d 4f80 30bd
00000030: 79b7 3b3e 32ff 503e e1bf 383e 8de3 703e
00000040: 028a 7c3e 3a35 803e 2cd9 443e b896 273e
00000050: 2570 75be 9f12 aabe 2476 62be 082e 063c
00000060: 0f42 5b3d 2d60 b73c 967e 65bd 3c0d 96be
00000070: 8cf6 04be 874f 0abe 382b d13c 39e3 613d
00000080: a07d 083d 68db a1be 0efc a5be 3391 9b3d
00000090: 8df5 a13e 1bc6 963e e68d 11bd cbc8 22be
000000a0: a4ae 9f39 1006 4dbd ec8f aa3e cfc0 203e
000000b0: 8e9f 233e bc92 a3be 23ea 98bd 5cda 123e
000000c0: ea3f 33bd d38c 853e 0c61 09be 034e 77be
000000d0: d6dd 1bbe 4625 c9bd acab 833d a5de 8bbe
000000e0: a5ce 4bbe f2cf 8abe d066 94bd 63a1 7c3d
000000f0: ff7c 60be b61e 33be 7185 173e 1fe2 eb3d
00000100: 1f26 603d c41e a93d e638 313e 9d37 f73d
00000110: 9c31 9d3e 5b41 733e 2da2 4b3d 0829 8f3e
00000120: 2f8b 7f3c bbca 213e 863f 573e c13c 56bd
00000130: ec8f 66be 5371 f0bd 4f30 dbbd 4ee8 a6bd
00000140: 4470 2fbe 7055 8fbe 7e82 afbe 3a36 9dbd
00000150: 3ce0 0cbe 6dd9 58be d8f7 73be 9c14 47be
00000160: b832 d9bc 85f2 553e 37e3 4bbe 0607 fe3d
00000170: 1f29 cfbd 0028 7c3e 8dfa 4c3e f017 813d
00000180: 63e9 df3d 9e38 9e3e 1d26 a43e 9b32 093e
00000190: f63c 183c 33ce d9bd 704b 1ebd 7b9a b1be
000001a0: 50ad 6bbe 26a4 6b3b c09c 46be abe5 13be
000001b0: 5fcf 28be 0cab 6bbe 4f7d 2f3e 8cec 893e
000001c0: 796f 063e ca91 4f3e 76eb 2e3e 27ac 4e3e
000001d0: fbfd c33d 0780 093e 86ee 3e3d 93fe 4e3d
000001e0: 57bb 97bb 8b33 933c ba3a ff3d 843a ba3d
000001f0: b4b4 023e 7542 a73d 65ba 32bd 3234 17be
00000200: 0fce a13d b697 1fbe b345 4a3e 81aa 773d
00000210: 3541 96bd 226e 88be 7f3c 0dbe fcc8 f83c
00000220: c2a6 6d3e 81e6 7fbd 5a26 94be cc1e 83be
00000230: a7d1 ad3e b81f b93e 66b8 1d3e b011 8dbe
00000240: 0f25 f83b 14bb 993e e97a 8c3e ac6a 293e
00000250: f4f3 30be ecd4 e03c 89f6 d2bd a2ba 53be
00000260: 0189 9b3d 07a3 963d 7567 9a3c f462 44be
00000270: bc2a 79bd a827 2abb 1343 783d 3cb7 023e
00000280: 19e4 bdbd 74bf 46be 436f cbbd 4573 723d
00000290: 62fe 2ebe 8feb ebbc 7efd 18be 1810 06bc
000002a0: 565f 72be 9bd0 4dbe faec 26be af1e 14be
000002b0: a8e8 58be 9146 cebd 890d 8cbc c536 8abd
000002c0: 131a 683c 60eb 0dbd cd4e 633e 6393 b23c
000002d0: 4d0f 4e3e 6ae1 4d3e bc43 953d 92ff 5b3e
000002e0: b9f2 a03e 1c19 47be cbf8 84be fbc5 9c3c
000002f0: 1b6e 403d 5fdd 243e 20d2 f6bd 0c57 e4bd
00000300: 985c 9b3d f4a1 543e f239 b5bd 7369 76bd
00000310: 3eb5 08be eff5 c5bd 0808 12be 4bab 103e
00000320: 960c 143e 721f 543c 87ac 173e 089a 27be
00000330: e8a6 4e3e c9ca 273e b7f0 d93d 36eb 45bd
00000340: a3d9 073e c4e4 b7bd 0865 853e a804 183e
00000350: 1eb1 883e 0416 f53d e9e1 ecbd a0ff 32bd
00000360: 171b 4c3e 4a63 953a a9e6 92be 3307 a7bd
00000370: 2008 c23d 22ff d53d f70b 4abe 71fe 47be
00000380: 30ba 0c3e 5d96 f2bd 06fc 85be 7baa 8bbe
00000390: 036f f9bd 0733 92bc 577d 7cbc 4ca2 b5bc
000003a0: 6652 413e 65c1 623d 8e0c 423e 30b2 4abd
000003b0: b7d4 bc3e b242 5c3e 94de 803d d0fa 793e
000003c0: 6725 953e b144 b53e a252 0d3e d3b2 b03b
000003d0: 6e38 85bd 2766 6ebe d72a 4cbc d5e3 1abe
000003e0: 78fe 54bd 34fd b1be 1e60 8b3e 7725 cdbd
000003f0: 4979 00be 2a88 cabd 4088 61be ce53 3a3e

conv1.bias f4 [14]
-0.022032892 0.065649346 -0.1738405 -0.0023519709 0.22300641 0.10028067 -0.071805954 0.26858193
0.087497845 0.21903472 -0.08800617 -0.03132791 0.20310088 0.09412823
00000000: 537e b4bc 2a73 863d 3e03 32be 8623 1abb
00000010: cb5b 643e f45f cd3d 000f 93bd 9283 893e
00000020: 1232 b33d a34a 603e 943c b4bd b251 00bd
00000030: adf9 4f3e 4dc6 c03d

conv2.weight f4 [7, 14, 5, 5]
-0.13265772 -0.05679449 -0.048135076 -0.09102397 -0.027428998 -0.08113754 -0.015075969 -0.026444424
-0.10507777 -0.044548705 0.029620944 0.019894488 0.010913672 0.056328632 -0.03827309 0.110887036
0.017120397 0.06064943 0.07902584 0.046464894 0.023566764 0.04590019 -0.0013468594 0.016562589
0.0030336804 0.021722907 -0.07367737 -0.037178054 -0.11425554 -0.10297021 0.014562224 0.008785791
-0.04160351 0.030719595 -0.06745627 0.02166857 0.05171489 0.084885456 0.12407998 0.059307434
0.004377319 0.052743606 0.110759765 0.12063788 0.117721856 0.020503765 0.026546763 0.0434284
0.016415492 0.061459668 -0.01951689 -0.041189063 -0.064227805 -0.08085893 -0.13725726 0.09557053
0.044540044 0.056386784 -0.021715298 -0.06307375 0.062019173 0.07951845 0.0676003 0.0044718552
0.06086871 0.050596416 -0.019996423 0.024612453 0.018439578 0.038009062 0.012641126 0.034914788
0.019946938 0.007179582 0.057234183 0.0020086018 0.0024413746 -0.031664785 -0.067797415 -0.0871071
0.048004217 0.044699878 0.024868563 -0.04531836 -0.07047509 0.0890143 0.0042873076 0.04366606
0.012437835 -0.014215231 0.040379535 0.033585634 -0.04424104 -0.0030705663 0.035983305 0.04100944
0.03202235 0.068507046 0.06881869 0.075142674 -0.03136796 -0.0743533 -0.10449938 -0.0778921
-0.14326039 0.0038256808 -0.013434657 0.027081765 0.003378886 -0.06761434 0.054214515 0.095674716
0.07288231 0.0017182943 0.06874361 0.075721756 0.030130323 0.09984343 0.086110406 0.06876172
0.06630492 0.05830869 0.014828806 0.05705793 0.04825186 -0.091589294 -0.13283208 -0.078005254
-0.07949251 -0.08802808 -0.07028304 -0.03848175 -0.043420967 0.0031395983 0.032148037 -0.07580823
-0.03302953 -0.0313452 0.0245622 -0.011045868 -0.03561696 -0.008779637 0.012139683 0.015673392
0.0045102956 -0.039615743 0.03596231 0.02148627 0.039776165 -0.005304853 0.069274545 0.018534178
0.092765175 -0.0047575533 0.04189003 0.062042505 -0.0351995 0.004176333 0.010759412 0.049880754
0.017469447 -0.021807436 0.02800464 0.04407909 -0.021558933 -0.0187489 -0.010094918 -0.048820496
0.0056111915 -0.018879447 0.018903874 -0.0031786754 -0.03921763 -0.06417638 -0.008425149 -0.026507543
-0.03907868 -0.03544372 0.00799495 0.0006030708 -0.06673958 -0.02655085 -0.07902024 -0.04300466
-0.04654586 -0.113426365 -0.114460506 -0.09545534 -0.093099825 -0.08182046 -0.07550599 -0.028441774
-0.057181124 -0.0039009526 -0.056560636 -0.010171515 0.00024080547 0.056492496 0.058962468 -0.011466635
-0.12610978 -0.15300359 -0.13136089 -0.07407472 -0.057516556 -0.15561226 -0.09737872 -0.11906973
-0.106125295 -0.09233378 -0.035804655 -0.047297914 -0.08886505 -0.04482279 -0.035338003 0.022752084
0.012990408 -0.05017237 0.011438399 -0.0070446054 0.018091252 0.04055015 -0.032486327 -0.00020368652
-0.017466279 -0.116841316 -0.09640574 -0.11992487 -0.105900034 -0.09399967 -0.06905334 -0.042167675
-0.09941981 -0.10616557 -0.15411337 0.08234642 0.06234301 -0.027681971 -0.008272122 -0.08070314
0.10718811 0.06054045 0.050851487 0.007631163 -0.00087703345 0.06512485 0.016313357 -0.018672077
0.0054050046 0.025990339 -0.08852956 -0.012714201 -0.001957516 -0.04661319 -0.019482981 -0.03194227
00000000: 6dd7 07be 57a1 68bd 4929 45bd c66a babd
00000010: c7b2 e0bc 702b a6bd 3201 77bc faa1 d8bc
00000020: 0433 d7bd b478 36bd 9fa7 f23c c4f9 a23c
00000030: 42cf 323c dab8 663d 3ec4 1cbd be18 e33d
00000040: 1340 8c3c 896b 783d 4dd8 a13d f951 3e3d
00000050: 160f c13c d601 3c3d 1a89 b0ba 44ae 873c
00000060: b6d0 463b 3df4 b13c 29e4 96bd 0448 18bd
00000070: cffe e9bd 0ce2 d2bd 6596 6e3c 47f2 0f3c
00000080: 7168 2abd a9a7 fb3c 8326 8abd 4982 b13c
00000090: fed2 533d 6dd8 ad3d a51d fe3d 5aec 723d
000000a0: 9d6f 8f3b ae09 583d 04d6 e23d fe10 f73d
000000b0: 2818 f13d 83f7 a73c 9978 d93c fae1 313d
000000c0: c879 863c 22bd 7b3d e3e1 9fbc ddb5 28bd
000000d0: de89 83bd 5e99 a5bd 2b8d 0cbe 7bba c33d
000000e0: 9f6f 363d d4f5 663d 48e4 b1bc cf2c 81bd
000000f0: d107 7e3d 92da a23d 0772 8a3d a488 923b
00000100: 7851 793d 303e 4f3d 8acf a3bc 0ea0 c93c
00000110: 990e 973c 64af 1b3d ba1c 4f3c cf02 0f3d
00000120: c367 a33c b342 eb3b 646e 6a3d bfa2 033b
00000130: 78ff 1f3b efb2 01bd 5fd9 8abd 3565 b2bd
00000140: 12a0 443d 3817 373d 28b9 cb3c bf9f 39bd
00000150: 3e55 90bd 214d b63d 8b7c 8c3b 2fdb 323d
00000160: 10c8 4b3c 00e7 68bc 0365 253d 1791 093d
00000170: 1836 35bd 8e3b 49bb 3b63 133d 84f9 273d
00000180: de29 033d 6c4d 8c3d d0f0 8c3d 67e4 993d
00000190: b17b 00bd 8b46 98bd c503 d6bd e585 9fbd
000001a0: dab2 12be 46b8 7a3b 091d 5cbc 94da dd3c
000001b0: 4d70 5d3b 6379 8abd 0a10 5e3d 1bf1 c33d
000001c0: 5243 953d 6438 e13a 73c9 8c3d 0214 9b3d
000001d0: ded3 f63c b67a cc3d a75a b03d f2d2 8c3d
000001e0: e0ca 873d 18d5 6e3d 85f4 723c 93b5 693d
000001f0: bea3 453d 2b93 bbbd 2205 08be 38c1 9fbd
00000200: f8cc a2bd 1148 b4bd 8ef0 8fbd 0a9f 1dbd
00000210: 2fda 31bd b8c1 4d3b a9ad 033d 5841 9bbd
00000220: f949 07bd d363 00bd ab36 c93c baf9 34bc
00000230: 17e3 11bd 77d8 0fbc 85e5 463c 7c65 803c
00000240: 1acb 933b 1e44 22bd 374d 133d f903 b03c
00000250: 55ec 223d 55d4 adbb d0df 8d3d fdd4 973c
00000260: abfb bd3d 40e5 9bbb e194 2b3d 4820 7e3d
00000270: 5a2d 10bd 9fd9 883b 3f48 303c c34f 4c3d
00000280: 161c 8f3c 82a5 b2bc fd69 e53c 478c 343d
00000290: 5c9c b0bc 4b97 99bc 2865 25bc 00f8 47bd
000002a0: 16de b73b 12a9 9abc 4cdc 9a3c 5351 50bb
000002b0: aaa2 20bd e86e 83bd a309 0abc 5926 d9bc
000002c0: f710 20bd 6f2d 11bd 40fd 023c 6517 1e3a
000002d0: c3ae 88bd 2b81 d9bc 5dd5 a1bd a825 30bd
000002e0: dfa6 3ebd 154c e8bd 456a eabd 177e c3bd
000002f0: 1fab bebd 7c91 a7bd e2a2 9abd b9fe e8bc
00000300: c136 6abd 20a7 7fbb 20ac 67bd 6da6 26bc
00000310: ba80 7c39 ad64 673d a182 713d 8ede 3bbc
00000320: ec22 01be f9ac 1cbe 7883 06be 7db4 97bd
00000330: 7b96 6bbd d258 1fbe 7f6e c7bd d5da f3bd
00000340: 3858 d9bd 7e19 bdbd e7a7 12bd 75bb 41bd
00000350: e1fe b5bd 1a98 37bd 95be 10bd 9462 ba3c
00000360: b8d5 543c 8b81 4dbd 1f68 3b3c 6fd6 e6bb
00000370: 1b34 943c ea17 263d 6210 05bd af94 55b9
00000380: 7115 8fbc 804a efbd 5f70 c5bd 2c9b f5bd
00000390: 1ee2 d8bd e682 c0bd d66b 8dbd 03b8 2cbd
000003a0: 9d9c cbbd 566d d9bd e5cf 1dbe 3da5 a83d
000003b0: 625b 7f3d 4dc5 e2bc cb87 07bc b047 a5bd
000003c0: 7185 db3d 43f9 773d a649 503d d60e fa3b
000003d0: b8e8 65ba 2d60 853d 97a3 853c 2ff6 98bc
000003e0: 771c b13b b1e9 d43c fc4e b5bd 394f 50bc
000003f0: ab49 00bb 79ed 3ebd c69a 9fbc e6d5 02bd

conv2.bias f4 [7]
-0.03579236 0.114085734 0.022378594 0.05129184 0.02681132 0.02260483 0.013796704
00000000: 029b 12bd c8a5 e93d 5053 b73c 6417 523d
00000010: 6aa3 db3c c42d b93c 920b 623c

dense1.weight f4 [32, 5488]
0.005939357 0.0022776579 -0.006508605 0.012860028 0.00085205364 -0.002041086 -0.0040913094 -0.005464455
0.007690484 0.002226969 -0.007261214 -0.00032244847 0.017809952 0.007519882 0.0014205961 0.0129587315
-0.0066830055 0.013566001 -0.0029442427 0.012701315 -0.006781154 -0.0011108298 0.00045418364 0.0032014712
-0.012300219 -0.0059669083 0.013324695 0.0073557473 0.007507335 -0.0023607532 0.008394261 0.0015279932
-0.007780693 -0.0057149795 -0.008208094 -0.004530963 0.004523882 0.0017336337 -0.008969727 0.01256249
-0.012454442 0.0040960168 0.008602825 0.0020659296 0.0054030553 -0.009353456 0.0032370887 0.011128041
0.0077225757 -0.009721806 -0.002145294 -0.0062033515 -0.010432357 0.00096635794 0.0071305237 -0.0058928044
-0.003582838 -0.006248044 0.0043883594 0.0034008874 0.0013701263 0.0113906665 0.0029296563 0.012643791
-0.003079802 -0.0083545 -0.011175656 -0.013558585 -0.00663922 0.005526739 0.0032560227 -0.0015325381
0.009217745 -0.0058952468 0.0057211705 0.012605161 -0.0019796174 -0.011451313 0.0029260388 0.010331486
0.0099072205 -0.011678527 0.008695437 -0.0019123675 0.003357315 -0.0018130768 -0.008666723 -0.0014136094
-0.015133159 -0.004028497 0.0003300425 -0.00019114594 -0.006865189 -0.008179951 -0.0058626123 -0.0017374754
-0.013241816 0.0095026195 -0.0005415347 -0.004878316 -0.018626748 -0.006594838 -0.00140173 0.0023214591
-0.0017366132 -0.01048475 0.0029611085 -0.011966547 -0.0002998479 0.01137326 -0.009817368 -0.007124054
0.012394535 -0.011891597 -0.0067436877 -0.00733225 0.009463821 -0.0030616496 0.0003023764 0.0029149523
-0.002201656 0.0038867397 -0.020737141 0.0046598553 -0.0012811706 0.014187887 0.008282994 0.004843707
0.0013524621 -0.0017710695 -0.009784195 0.019689433 -0.0042024846 -0.010705382 0.012758001 0.009812926
-0.0138212675 -0.0013847405 -0.012417668 -0.006136488 -0.0051800087 -0.0055517307 0.0023278634 0.010209456
0.0056774737 -0.003979157 0.008878976 -0.010332742 0.020961843 0.01539455 0.019191764 0.02350777
-0.013944287 0.0027824547 0.0030930764 0.0073602768 0.0107091945 -0.0055297837 -0.0069010435 -0.002905629
-0.013100551 -0.005531308 -0.019688943 -0.0080591915 -0.0061735506 -0.018045334 -0.0060914974 0.0049315235
0.007776521 -0.003433752 -0.0010068215 -0.0054048006 0.014156766 0.009612698 -0.005499991 0.0027371284
0.018975418 0.01503446 -0.0034248624 0.007912735 0.01683202 0.0029263282 0.0013270432 0.006670748
-0.00012672337 0.014825173 0.0043628397 -0.0031873344 -0.009393519 -0.008310825 -0.021596115 -0.018323371
-0.00995695 0.00092125335 0.0035173579 -0.0033601713 -0.0037396296 -0.00800131 0.013153805 -0.0035553398
0.011295335 0.018772963 -0.004240952 0.020963008 0.003235945 0.019354302 0.0062243426 0.021739064
0.018243155 0.021623392 0.015502585 0.0036836776 0.02521513 -0.004684834 0.008766765 -0.0022135032
0.01831822 -0.004802706 -0.017976627 -0.01834821 0.006570859 -0.016407184 0.002458266 -0.011597698
-0.0072122826 -0.0066207675 -0.0054772366 -0.0042503607 0.015691588 0.009710475 0.0050124135 0.004518914
-0.0060215853 -0.0012307089 0.009212268 0.018458769 0.0135620665 0.03188997 0.027458359 0.03187826
0.026068615 0.03280148 0.019136747 0.014709656 -0.00199607 -0.01814443 -0.008451211 -0.0024126996
0.006361991 -0.001390867 0.0014255812 0.0053785825 -0.0028093236 -0.01022125 -0.004345267 -0.0067863413
00000000: f09e c23b c244 153b 2346 d5bb deb2 523c
00000010: 5a5c 5f3a bec3 05bb 6410 86bb 2c0f b3bb
00000020: 7500 fc3b 57f2 113b 7aef edbb 4d0e a9b9
00000030: 2de6 913c 5869 f63b 4c33 ba3a dc50 543c
00000040: 1dfd dabb ef43 5e3c 32f4 40bb 2d19 503c
00000050: 7134 debb 4399 91ba 7f1f ee39 c6cf 513b
00000060: dc86 49bc 0e86 c3bb d24f 5a3c 7b08 f13b
00000070: 1700 f63b deb6 1abb 1588 093c f246 c83a
00000080: 2ff5 febb b944 bbbb 3e7b 06bc 7978 94bb
00000090: 133d 943b 183b e33a c3f5 12bc e7d2 4d3c
000000a0: b70d 4cbc e137 863b ddf2 0c3c 8c64 073b
000000b0: 1d0c b13b 3d3f 19bc 5625 543b 6352 363c
000000c0: a90d fd3b 3648 1fbc 1098 0cbb 7c45 cbbb
000000d0: 7aec 2abc 2f53 7d3a 2ba7 e93b 6d18 c1bb
000000e0: 0cce 6abb 64bc ccbb 3acc 8f3b 6ce1 5e3b
000000f0: cf95 b33a eb9f 3a3c 7aff 3f3b e727 4f3c
00000100: 81d6 49bb 50e1 08bc 191a 37bc d424 5ebc
00000110: d08d d9bb a619 b53b ff62 553b 72df c8ba
00000120: 0606 173c ea2c c1bb a878 bb3b e185 4e3c
00000130: 78bc 01bb 4a9e 3bbc c9c2 3f3b 6545 293c
00000140: e551 223c 4b57 3fbc 4e77 0e3c 68a8 faba
00000150: 6606 5c3b c3a4 edba dffe 0dbc dc48 b9ba
00000160: 12f1 77bc 7b01 84bb 8e09 ad39 596e 48b9
00000170: 61f5 e0bb 3405 06bc 281b c0bb 00bc e3ba
00000180: 34f4 58bc e0b0 1b3c c7f5 0dba 48da 9fbb
00000190: 1f97 98bc 8319 d8bb 41ba b7ba 9f23 183b
000001a0: 129f e3ba 3bc8 2bbc 280f 423b 560f 44bc
000001b0: e734 9db9 e956 3a3c 07d9 20bc e570 e9bb
000001c0: 7312 4b3c f9d4 42bc 27fa dcbb 5f43 f0bb
000001d0: 240e 1b3c f5a5 48bb 4688 9e39 c908 3f3b
000001e0: a949 10bb acb8 7e3b f0e0 a9bc b3b1 983b
000001f0: f4ec a7ba 5074 683c 65b5 073c f6b7 9e3b
00000200: 1945 b13a 3b23 e8ba e34d 20bc bc4b a13c
00000210: ffb4 89bb a065 2fbc ef06 513c 65c6 203c
00000220: 9972 62bc 2e80 b5ba 7973 4bbc 9814 c9bb
00000230: 10bd a9bb 4beb b5bb 118f 183b 9045 273c
00000240: 1a0a ba3b 9763 82bb 2079 113c a94a 29bc
00000250: 2cb8 ab3c 6c39 7c3c 0c38 9d3c 5e93 c03c
00000260: 9476 64bc d859 363b 36b5 4a3b 7a2e f13b
00000270: 9e75 2f3c 3033 b5bb 2622 e2bb 5e6c 3ebb
00000280: b2a3 56bc f93f b5bb b54a a1bc b30a 04bc
00000290: 7f4b cabb cfd3 93bc 2f9b c7bb 9e98 a13b
000002a0: 30d2 fe3b cd08 61bb 53f7 83ba c11a b1bb
000002b0: c8f1 673c 947e 1d3c 4539 b4bb 6561 333b
000002c0: 5672 9b3c 1953 763c a873 60bb 6ba4 013c
000002d0: 4ee3 893c a4c7 3f3b 2ef0 ad3a 4a96 da3b
000002e0: 0ce1 04b9 48e5 723c 27f6 8e3b 99e2 50bb
000002f0: 46e7 19bc 202a 08bc 56ea b0bc e51a 96bc
00000300: 7a22 23bc 4480 713a 7983 663b 5236 5cbb
00000310: 9314 75bb ed17 03bc 0f83 573c b400 69bb
00000320: 1210 393c c2c9 993c aff7 8abb 9dba ab3c
00000330: 2612 543b ea8c 9e3c 92f5 cb3b 1f16 b23c
00000340: ab72 953c 8a23 b13c 8efe 7d3c db69 713b
00000350: f68f ce3c 3c83 99bb 7aa2 0f3c 6c10 11bb
00000360: 1710 963c 0560 9dbb b843 93bc fc4e 96bc
00000370: 5c50 d73b 5c68 86bc dc1a 213b 4504 3ebc
00000380: 0355 ecbb 06f3 d8bb 647a b3bb 9c46 8bbb
00000390: a58b 803c af18 1f3c 2c3f a43b 6613 943b
000003a0: b850 c5bb bd4f a1ba 0def 163c d836 973c
000003b0: 6e33 5e3c 0f9f 023d 5af0 e03c c792 023d
000003c0: d98d d53c d85a 063d abc4 9c3c c500 713c
000003d0: 7fd0 02bb a1a3 94bc f376 0abc 621e 1ebb
000003e0: 4078 d03b c14d b6ba 91da ba3a d23e b03b
000003f0: a11c 38bb 0877 27bc be62 8ebb f55f debb

dense1.bias f4 [32]
-0.011027739 -0.0024928197 0.006803984 -0.00032641168 0.0033404152 0.0032168238 -0.0031886606 -0.0027926315
-0.0075291633 -0.0038145308 -0.0101962285 0.0054093488 -0.006184056 -0.0026988287 0.0045460463 0.010618248
0.0057681003 -0.0027726048 -0.0012403079 0.008834962 0.0025634256 0.0039039187 0.009438755 0.007574641
-0.0006604873 -0.0064058877 0.0056606927 0.01285342 0.003216779 -0.0053079156 -0.0034677144 -0.010004705
00000000: b1ad 34bc 935e 23bb f4f3 de3b 3c22 abb9
00000010: deea 5a3b 59d1 523b d9f8 50bb 9504 37bb
00000020: 33b7 f6bb 35fd 79bb 150e 27bc e840 b13b
00000030: 9fa3 cabb d5de 30bb 00f7 943b 29f8 2d3c
00000040: 5502 bd3b 97b4 35bb d491 a2ba 84c0 103c
00000050: 25ff 273b e3d8 7f3b 02a5 1a3c b234 f83b
00000060: 8d24 2dba 7be8 d1bb 557d b93b 2797 523c
00000070: 99d0 523b 06ee adbb 9842 63bb c6ea 23bc

dense2.weight f4 [10, 32]
-0.07659214 -0.18636122 -0.24503873 0.07407531 0.10107234 -0.054616172 -0.04962423 -0.15776514
-0.18551923 -0.019900927 -0.10426919 0.12854633 0.21837585 0.13732341 -0.16377422 0.34207153
0.0960065 -0.0404974 0.1340245 -0.19202556 0.20927687 0.21752058 -0.14408123 -0.2412688
0.16019656 -0.29098234 0.22192591 -0.12066081 0.16001333 -0.22844209 -0.21587366 0.017991515
0.08692966 0.20898536 -0.18915749 -0.29384315 -0.13926566 -0.25295582 0.15252733 0.21503732
0.15918379 -0.17619745 -0.27027848 -0.29819396 -0.09348064 -0.17964193 0.253675 -0.024250383
0.13513802 -0.17550832 0.17787902 -0.1764118 -0.21873692 -0.10689757 -0.17193076 0.3065356
0.1852018 0.17019846 -0.08654031 -0.14259326 -0.099923804 0.20951223 -0.13685639 0.052521892
0.15632486 0.007785908 -0.15264477 -0.11152685 -0.008133077 -0.15463492 0.13478695 -0.16087314
0.21345265 0.11693105 0.1446548 -0.13268064 0.24408266 0.14395142 0.26003754 -0.071580574
-0.12686127 0.14155932 -0.26184514 0.17762466 0.028775033 0.18915884 -0.14891759 -0.21519072
-0.21140023 -0.24908063 0.16051203 -0.0669841 -0.107993476 0.21087898 -0.044846635 0.26926115
0.12696323 0.14051856 0.19471037 0.21870461 0.13900611 0.003274096 -0.21598011 0.18214734
0.15953507 0.22611243 0.121967934 -0.14317186 -0.122453146 0.1145806 0.24007873 -0.02762085
-0.30259353 -0.15877627 0.09543999 -0.003372923 0.18819152 -0.13256475 -0.15484083 -0.15715264
-0.18400931 0.15879227 -0.13004975 -0.11322166 -0.08153286 -0.15249108 -0.20967487 -0.09238042
-0.29417646 0.218658 0.07857675 -0.15933669 -0.16282478 -0.045910917 -0.15030898 0.13254741
-0.10738597 -0.22791028 0.17509793 -0.22743164 -0.12894781 0.023598801 -0.11251651 -0.040857553
0.15367605 0.21423212 -0.19595705 -0.19958268 -0.16165873 -0.13508236 0.2675099 0.31784794
-0.17787027 -0.10490827 0.2374853 0.2177046 -0.15017045 0.027022777 0.20438689 -0.17232397
-0.22609924 -0.23090553 -0.05728225 0.22142936 -0.17586423 0.27662295 0.105286255 0.19113253
-0.15060349 0.26543263 0.14551255 0.08705828 0.09764674 -0.2760403 -0.13054201 -0.11739703
-0.19766271 -0.03179704 0.1218399 0.120677926 0.20753749 -0.10274048 0.15453829 0.05140913
-0.20406562 0.18147182 -0.09851581 0.13575442 0.18787648 -0.15075031 -0.16638383 0.06901794
-0.2755907 -0.23898225 -0.2620261 0.0047541945 -0.2286619 0.2836185 0.13604024 -0.06648354
-0.22344351 -0.21531683 -0.20432203 -0.113112696 0.0030015334 -0.23475192 -0.1472291 0.34526855
0.13325249 0.1626741 0.03462407 0.23326299 0.24305445 -0.1219211 0.2497235 -0.06964412
-0.15622404 0.102586575 0.20200486 -0.20494236 0.15938847 0.19645849 -0.27131134 -0.04383203
0.1567946 0.2148859 0.18631504 -0.2045632 -0.2377886 -0.18341269 -0.21174413 -0.06866446
0.18362969 0.22788511 -0.17214416 0.13586459 -0.1436458 0.017158154 0.21746777 -0.13235208
-0.21392629 -0.17393205 -0.23586217 -0.15157951 -0.17516856 0.15052074 -0.15994634 0.04172833
0.17557944 -0.23420948 -0.2222696 0.22117625 0.2735573 0.19522242 0.21706331 -0.12685947
00000000: 57dc 9cbd 7ad5 3ebe 6feb 7abe ccb4 973d
00000010: 04ff ce3d 35b5 5fbd c742 4bbd 2f8d 21be
00000020: c1f8 3dbe 4507 a3bc 168b d5bd a6a1 033e
00000030: eb9d 5f3e 829e 0c3e 6eb4 27be 0024 af3e
00000040: 0e9f c43d 9ae0 25bd b83d 093e 59a2 44be
00000050: ad4c 563e b7bd 5e3e 088a 13be 2b0f 77be
00000060: 910a 243e a3fb 94be 8c40 633e 041d f7bd
00000070: 89da 233e b9ec 69be fc0d 5dbe f162 933c
00000080: 2d08 b23d 4200 563e 80b2 41be 9c72 96be
00000090: a89b 0ebe 6d83 81be 2030 1c3e be32 5c3e
000000a0: 1301 233e 1b6d 34be f161 8abe e1ac 98be
000000b0: c772 bfbd 0ef4 37be b1e1 813e bda8 c6bc
000000c0: 9f61 0a3e 74b8 33be eb25 363e 4ba5 34be
000000d0: 92fc 5fbe 1ded dabd 9e0e 30be 3cf2 9c3e
000000e0: 8aa5 3d3e 8148 2e3e 0c3c b1bd f803 12be
000000f0: daa4 ccbd 608a 563e 1524 0cbe 3221 573d
00000100: a013 203e ee20 ff3b e94e 1cbe 3068 e4bd
00000110: 9940 05bc 9e58 1ebe 9705 0a3e eebb 24be
00000120: 5593 5a3e 8c79 ef3d 6320 143e 6fdd 07be
00000130: cef0 793e 0068 133e a423 853e d698 92bd
00000140: ece7 01be edf4 103e 9110 86be 3de3 353e
00000150: 9eb9 eb3c dbb2 413e da7d 18be f55a 5cbe
00000160: 4d79 58be fe0e 7fbe 445d 243e f62e 89bd
00000170: af2b ddbd a9f0 573e 1bb1 37bd 99dc 893e
00000180: a602 023e 19e4 0f3e 2862 473e 1af4 5f3e
00000190: 9e57 0e3e 3792 563b e429 5dbe d584 3a3e
000001a0: 295d 233e 048a 673e 53ca f93d a59b 12be
000001b0: b7c8 fabd 3ca9 ea3d 33d7 753e 1f45 e2bc
000001c0: 8aed 9abe 3f96 22be 0b76 c33d 420c 5dbb
000001d0: 47b5 403e 0ebf 07be 988e 1ebe 9fec 20be
000001e0: f06c 3cbe 719a 223e c32b 05be c2e0 e7bd
000001f0: b3fa a6bd 9f26 1cbe 02b5 56be f231 bdbd
00000200: 4c9e 96be e2e7 5f3e d9ec a03d 2829 23be
00000210: 8abb 26be 160d 3cbd 99ea 19be 82ba 073e
00000220: 2ded dbbd 5061 69be df4c 333e d7e3 68be
00000230: e50a 04be 4652 c13c 0e6f e6bd 405a 27bd
00000240: 415d 1d3e aa5f 5b3e f7a8 48be 675f 4cbe
00000250: de89 25be 0853 0abe 0ff7 883e f7bc a23e
00000260: a023 36be 26da d6bd 592f 733e f4ed 5e3e
00000270: 48c6 19be df5e dd3c cc4a 513e b275 30be
00000280: 8f86 67be 8072 6cbe cba0 6abd 61be 623e
00000290: c115 34be 86a1 8d3e 52a0 d73d 3fb8 433e
000002a0: cd37 1abe c9e6 873e 3e01 153e 9d4b b23d
000002b0: 04fb c73d 2755 8dbe ceac 05be db6d f0bd
000002c0: 1868 4abe 9d3d 02bd 3387 f93d fd25 f73d
000002d0: b584 543e 9a69 d2bd 493f 1e3e 6192 523d
000002e0: 94f6 50be c0d3 393e a8c2 c9bd 3503 0b3e
000002f0: b162 403e 4a5e 1abe 8660 2abe 4759 8d3d
00000300: 391a 8dbe c3b7 74be 4928 86be 13c9 9b3b
00000310: 5826 6abe 7236 913e 224e 0b3e 8628 88bd
00000320: 60ce 64be 047c 5cbe cb39 51be a1a7 e7bd
00000330: 60b5 443b cf62 70be 3ac3 16be 0ac7 b03e
00000340: 5773 083e 0a94 263e f8d1 0d3d 7edc 6e3e
00000350: 44e3 783e c5b1 f9bd 84b7 7f3e 94a1 8ebd
00000360: 32f9 1fbe e918 d23d 5dda 4e3e 69dc 51be
00000370: bb36 233e 6a2c 493e 52e9 8abe 3789 33bd
00000380: c38e 203e 0d0b 5c3e 5fc9 3e3e 0479 51be
00000390: db7e 73be 89d0 3bbe 74d3 58be f49f 8cbd
000003a0: 6c09 3c3e b75a 693e 8f46 30be 1620 0b3e
000003b0: e217 13be 428f 8c3c dfaf 5e3e 4e87 07be
000003c0: 7e0f 5bbe 3e1b 32be da85 71be a937 1bbe
000003d0: 635f 33be 1c22 1a3e f9c8 23be 53eb 2a3d
000003e0: 19cb 333e 9cd4 6fbe a49a 63be 077c 623e
000003f0: b40f 8c3e 63e8 473e d845 5e3e 73e7 01be

dense2.bias f4 [10]
0.15618962 0.2655169 -0.22867978 0.006235991 0.13561118 -0.22747882 -0.097251356 0.0552721
0.031211322 -0.089669764
00000000: 2cf0 1f3e d5f1 873e 082b 6abe 4957 cc3b
00000010: a8dd 0a3e 35f0 68be b82b c7bd ff64 623d
00000020: e3ae ff3c c8a4 b7bd
